outputs/checkpoints/clinical_model_v1.pth (torch, 280335 bytes, 13 tensors)

embedding_extractor.0.weight f4 [128, 463]
0	0xbb8a7889	-0.0042257947
1	0xbbeadb85	-0.007167282
2	0x3b6ccaa4	0.0036131525
3	0xbcc2854f	-0.023745207
4	0x3c8625a5	0.016375372
5	0xbbd89b82	-0.006610335
6	0xbaea7df6	-0.0017890322
7	0xbc512a2d	-0.012766403
8	0xbc1b061c	-0.009461906
9	0x3c68b8a4	0.014204178
10	0xbc875702	-0.01652098
11	0x3c91dd21	0.017805638
12	0x3ca7d607	0.020487798
13	0x3a920cd2	0.0011142737
14	0x3ba25c05	0.0049548172
15	0x3b31404c	0.002704638
16	0x8004314e	-3.85029e-40
17	0x3c4355bf	0.011922299
18	0x3b1cfa96	0.0023953072
19	0xbc679981	-0.014135719
20	0x3ac9adb3	0.0015386849
21	0xbc208e3d	-0.009799537
22	0xbbf2a710	-0.0074051693
23	0xbbabbe51	-0.0052411933
24	0x3c2b612b	0.010460178
25	0x3c81730b	0.015801927
26	0xbb1a52ca	-0.0023547881
27	0xbc7d4b0a	-0.015459785
28	0xbc95ba0f	-0.018277196
29	0xba254880	-0.0006305054
30	0xbcbdc1cd	-0.0231637
31	0x3b54d6f9	0.0032476767
32	0xba957ae0	-0.0011404417
33	0x3b45f738	0.0030207168
34	0x3c82a36d	0.015947068
35	0xbc81cd79	-0.015845047
36	0xbb0a0965	-0.0021062728
37	0xbb740005	-0.0037231457
38	0x3c422106	0.011848694
39	0x3b2d3874	0.0026431354
40	0xbb39ecff	-0.002837002
41	0x3b946257	0.0045283246
42	0xbaef37d9	-0.0018250897
43	0xbb001da2	-0.0019548913
44	0xbbbdb6c8	-0.0057896115
45	0xb99ee0db	-0.0003030364
46	0x3c2ffd23	0.010741505
47	0x3bc7221f	0.0060770656
48	0xbaa2a76a	-0.0012409512
49	0x3a0e8a34	0.0005437464
50	0xbc88744a	-0.016657013
51	0x3bca32ab	0.006170591
52	0x3beaae10	0.007161863
53	0x3bd9eae7	0.006650317
54	0xbbd75798	-0.0065717213
55	0xbc4f4e0e	-0.012652887
56	0xbca75c3a	-0.02042972
57	0xbaf44b86	-0.001863823
58	0x3c379280	0.011204362
59	0xbb9aba5b	-0.0047219223
60	0x3b6c3057	0.0036039555
61	0x3c3c0344	0.011475388
62	0xbb9880b9	-0.004654017
63	0xba7bd62a	-0.0009606803
64	0x3c947b54	0.018125214
65	0x3bfe3e24	0.0077588726
66	0x3c69fbb7	0.014281205
67	0x3bc829b4	0.006108487
68	0x3aa356b8	0.0012461757
69	0xbbb38e50	-0.0054796115
70	0x3cf3377f	0.029689549
71	0xbbfeae17	-0.007772218
72	0xb83ea538	-4.5453402e-05
73	0x3cc9b4b2	0.024622295
74	0xba84274a	-0.001008251
75	0x3b92c272	0.004478746
76	0x3be2cdf7	0.0069215256
77	0xbc13c513	-0.009019154
78	0xbb63fd4d	-0.003478843
79	0x3beeae17	0.0072839367
80	0x3c9b611a	0.0189672
81	0x3c91d15c	0.017800026
82	0xbb463c38	-0.0030248296
83	0xb8f8b852	-0.00011859894
84	0xba3ee138	-0.0007281485
85	0xbbb2c220	-0.0054552704
86	0xbc207c51	-0.009795264
87	0xbba0646c	-0.0048947837
88	0xbba126d9	-0.004917961
89	0xbc61efd3	-0.013790089
90	0x3b85e56a	0.004086186
91	0x3b1e0e8e	0.0024117562
92	0xbc1076ab	-0.008817355
93	0xbb582b4d	-0.0032984794
94	0x3c98d103	0.018654352
95	0x39a22db4	0.000309331
96	0xbb4176f4	-0.0029520364
97	0xbb7548d2	-0.0037427437
98	0xbc595956	-0.013265928
99	0xbb7b39bc	-0.0038333973
100	0x3d18f2ff	0.037341114
101	0x3b2b4fc2	0.0026140069
102	0xbc049387	-0.008091814
103	0x3cb5c5f0	0.02218911
104	0x800007c1	-2.782e-42
105	0x3c04bb54	0.008101303
106	0x3c1b20f1	0.009468303
107	0x3c059c74	0.008154977
108	0xb928f08d	-0.0001611134
109	0xba86af14	-0.0010275566
110	0xbca10fc8	-0.019660845
111	0xbc857cc9	-0.016294854
112	0xbc7ebe80	-0.015548348
113	0xbad5db51	-0.0016315972
114	0xbbd89523	-0.0066095754
115	0xbbb1777a	-0.005415854
116	0xbb9d2bd2	-0.0047964836
117	0x80016ede	-1.31607e-40
118	0x3b8fb050	0.0043850318
119	0x3c195670	0.009358987
120	0x3bd376c7	0.0064533683
121	0x3b36606d	0.002782847
122	0xbc9fe4d8	-0.0195183
123	0xb9726c8f	-0.0002311936
124	0xbbe75ea0	-0.0070608407
125	0xbc498947	-0.012300796
126	0xbb880ac6	-0.004151675
127	0xbb83622d	-0.004009506
128	0xbc05742b	-0.008145372
129	0xbc60b21b	-0.013714339
130	0x3a4f5391	0.00079088757
131	0xb9b780e3	-0.00035000508
132	0x3bb01671	0.005373769
133	0x3c2866a8	0.010278381
134	0xba7fcff4	-0.00097584655
135	0x3c8f04f8	0.017458424
136	0xbca6af82	-0.02034736
137	0x3ad3ebd5	0.0016168306
138	0xbb8fbc5a	-0.004386467
139	0x3c950333	0.018190002
140	0xbc37c5b1	-0.011216567
141	0x3aa813aa	0.0012823243
142	0x3b87ddf0	0.00414633
143	0x3bbda491	0.00578744
144	0xbbe2c4bc	-0.006920425
145	0x3c238bc0	0.009982049
146	0x3cb5252b	0.02211245
147	0x3bd28293	0.006424257
148	0xbc27d7cf	-0.010244324
149	0xbc8936a4	-0.016749687
150	0xbc3a21c1	-0.011360587
151	0xbc9b27d0	-0.018939883
152	0xba7ed0d1	-0.0009720447
153	0xbbc6dd65	-0.0060688728
154	0x3c12c48e	0.008957995
155	0x3c2e4d4a	0.010638544
156	0x3cdb454e	0.026766445
157	0xbcba3e3e	-0.022734758
158	0x3c288784	0.010286216
159	0x3c1f17b4	0.009710241
160	0x3c17a751	0.0092562
161	0xb93cc3fa	-0.00018002084
162	0xb7858ce4	-1.5920443e-05
163	0x3bd3eca9	0.006467421
164	0x3b15710d	0.002280298
165	0xbc671e73	-0.014106381
166	0x3ac9a4f2	0.001538424
167	0x3aa646c5	0.0012685886
168	0xbb2c67f7	-0.0026307085
169	0x3a15394d	0.00056924374
170	0xbb221900	-0.002473414
171	0xbba7818d	-0.005111879
172	0x3bed00ea	0.007232775
173	0x3b1037b7	0.0022005865
174	0x3b2e296c	0.0026574982
175	0xbc5c8540	-0.013459504
176	0x3b861b0d	0.00409258
177	0x3a86a2b8	0.0010271883
178	0xb99a9d04	-0.00029490155
179	0x3ac63910	0.0015123207
180	0xbb871da2	-0.0041234056
181	0x3a548f9a	0.00081085565
182	0x391b0efc	0.00014787534
183	0x3b8f0f1d	0.0043658153
184	0x3b0f4aec	0.0021864725
185	0x3bf22a64	0.0073903073
186	0x3c8b8497	0.017030997
187	0x3ba82b9e	0.0051321527
188	0xbc52e26b	-0.012871365
189	0x3a32c2d1	0.0006819191
190	0xbbb9c7c6	-0.005669567
191	0x3b82bb96	0.003989647
192	0xbc1329fa	-0.008982176
193	0xbc707406	-0.0146761
194	0x3b9be36c	0.0047573354
195	0x3c2b986f	0.010473355
196	0xbbe04b63	-0.0068449243
197	0x3c91fd17	0.017820878
198	0xbc1ca400	-0.009560585
199	0x3c1de2e8	0.009636618
200	0xbb8312d4	-0.004000047
201	0x3a7ff634	0.0009764165
202	0xbb4c8435	-0.0031206731
203	0x3a93a519	0.0011264413
204	0xbb5c4649	-0.003361123
205	0x3c01a7f0	0.007913575
206	0xbc25905a	-0.010105217
207	0xbc40821d	-0.011749771
208	0x3c4e0d30	0.012576386
209	0x3c423ff5	0.011856069
210	0x3bd579c6	0.0065147607
211	0xbb0a023c	-0.002105846
212	0x3bc9e079	0.0061607924
213	0x3bc0d7ef	0.0058851163
214	0xbb1fbc16	-0.0024373583
215	0x3c2b3924	0.010450635
216	0xbb7329ea	-0.003710384
217	0xbc3b0e25	-0.011416947
218	0x3bf3eafb	0.0074437833
219	0x3bc2fa60	0.005950257
220	0x3c0a7106	0.008449798
221	0xbaaa5d09	-0.0012997697
222	0x3c0a3773	0.008436072
223	0x3bc829af	0.0061084847
224	0x3aa57747	0.0012624048
225	0x3aa29f5e	0.0012407114
226	0x39751d5a	0.00023375955
227	0xbb492dc0	-0.0030697435
228	0x3c189186	0.009312039
229	0xbb600f3d	-0.003418877
230	0xbb13463b	-0.002247228
231	0xbc82d511	-0.015970739
232	0x3c409396	0.011753937
233	0x381a8246	3.6837788e-05
234	0x3bca204b	0.0061684004
235	0xbb50391c	-0.003177232
236	0xbb3bd4e6	-0.0028660833
237	0x0003b294	3.39568e-40
238	0x3ad31d77	0.0016106804
239	0xb90a5c72	-0.00013195144
240	0x3b9248c7	0.004464242
241	0xbb7ad4a2	-0.0038273712
242	0x3a9abacd	0.0011804939
243	0xb9bf9c3c	-0.00036546763
244	0xbaee3603	-0.0018174056
245	0x3a07208f	0.0005154693
246	0x3b1df141	0.0024100097
247	0xbb811248	-0.003938947
248	0x3bb662a2	0.005565957
249	0x3bec2dcb	0.0072076074
250	0xb8a397b0	-7.8007e-05
251	0x3c53ec78	0.0129347965
252	0x3aa4e8a3	0.0012581538
253	0xbb0f2e20	-0.002184756
254	0x3c0b90ba	0.008518392
255	0x3b315841	0.002706066

embedding_extractor.0.bias f4 [128]
0	0x3234d030	1.0524715e-08
1	0xb448eab4	-1.8711836e-07
2	0xb44e62e7	-1.9221226e-07
3	0x34eb2da2	4.3805363e-07
4	0xb2882b80	-1.5852265e-08
5	0x337c1616	5.869341e-08
6	0xb5182463	-5.667736e-07
7	0xb50d722f	-5.269275e-07
8	0xb5225c4b	-6.0484007e-07
9	0xb5eed62f	-1.7794717e-06
10	0xb4077927	-1.261693e-07
11	0xb581940c	-9.654336e-07
12	0xb51abd3a	-5.764483e-07
13	0xb50b5b44	-5.1914344e-07
14	0xb50f964b	-5.3490356e-07
15	0x345e8935	2.0725277e-07
16	0x32bd3b66	2.2029507e-08
17	0x34ad0ebc	3.2234482e-07
18	0x322dc1e4	1.0114011e-08
19	0x3303054e	3.050564e-08
20	0x35826211	9.714296e-07
21	0xb480f21d	-2.4018019e-07
22	0xb469f1b2	-2.1787744e-07
23	0x3597708d	1.1283133e-06
24	0xb518eb2f	-5.696665e-07
25	0xb561d5dc	-8.413024e-07
26	0xb39201b2	-6.798963e-08
27	0xb561d4d4	-8.412874e-07
28	0x35dbc100	1.6372942e-06
29	0xb3e97652	-1.087143e-07
30	0x33a38044	7.6136104e-08
31	0x328e60e4	1.6575036e-08
32	0xb35027c2	-4.8464933e-08
33	0xb460e3b8	-2.0944469e-07
34	0xb65b6208	-3.2690605e-06
35	0x3319d374	3.5815404e-08
36	0x3436a41e	1.7009776e-07
37	0xb40737b5	-1.2593121e-07
38	0x351bc0ee	5.802275e-07
39	0xb53ab0fe	-6.9547957e-07
40	0x34dc6b7b	4.1056396e-07
41	0xb28c1d8c	-1.6311581e-08
42	0xb400f52e	-1.2010125e-07
43	0xb4d9dbde	-4.0579374e-07
44	0x35399da6	6.914728e-07
45	0x32aa6290	1.9835426e-08
46	0x35328bd3	6.651364e-07
47	0xb3f310ac	-1.1318602e-07
48	0xb204e7c4	-7.736109e-09
49	0x35944e5a	1.1049663e-06
50	0x34795d7e	2.3223944e-07
51	0xb61f99ef	-2.3782447e-06
52	0x34da19cc	4.0624434e-07
53	0x33c7816e	9.290203e-08
54	0xb512ef94	-5.473787e-07
55	0xb4b052df	-3.284285e-07
56	0x341b008d	1.44357e-07
57	0x34727948	2.2582128e-07
58	0xb297324f	-1.7601591e-08
59	0x349eeb68	2.9601074e-07
60	0xb265bf20	-1.3373011e-08
61	0xb42ccd31	-1.6093396e-07
62	0xb51896a3	-5.684362e-07
63	0x344c6ce2	1.9038592e-07
64	0xb3f2a5a6	-1.12991344e-07
65	0x3550e5f5	7.782067e-07
66	0xb5bceec6	-1.4076584e-06
67	0xb3170a30	-3.5166693e-08
68	0x3338cb94	4.302599e-08
69	0xb4b058fa	-3.2847294e-07
70	0x349dc9a4	2.9390242e-07
71	0x33f9160c	1.15989764e-07
72	0xb4003a3a	-1.1942112e-07
73	0xb29a37cd	-1.7953335e-08
74	0xb4ca990e	-3.7736794e-07
75	0xb46157be	-2.0986678e-07
76	0x3420f271	1.4989361e-07
77	0xb537c01c	-6.845237e-07
78	0xb589ff32	-1.0281567e-06
79	0x357c10c0	9.390169e-07
80	0x3503594b	4.893124e-07
81	0xb5646e32	-8.5096974e-07
82	0x346a1dcb	2.1803787e-07
83	0xb43ca4c8	-1.7568811e-07
84	0xb3f61f64	-1.14609776e-07
85	0xb54c46da	-7.6099025e-07
86	0xb4f970db	-4.6461977e-07
87	0x35897bc1	1.0243313e-06
88	0xb56abf05	-8.7449763e-07
89	0xb568b601	-8.6691585e-07
90	0x345bcf6a	2.0471421e-07
91	0x337e5a90	5.922135e-08
92	0xb4b0c162	-3.292326e-07
93	0xb2e17bc6	-2.6249733e-08
94	0x35b3b5f9	1.33895e-06
95	0xb43ab529	-1.7388506e-07
96	0xb4551234	-1.9843793e-07
97	0x35ab11e2	1.2745697e-06
98	0xb4153b02	-1.3898173e-07
99	0xb5947c78	-1.1063084e-06
100	0xb5372f34	-6.82415e-07
101	0xb586bee6	-1.0039337e-06
102	0x34e6953f	4.294943e-07
103	0x35486af3	7.466144e-07
104	0xb4a3c424	-3.0503827e-07
105	0x353fa712	7.1396164e-07
106	0xb514aa7b	-5.538238e-07
107	0xb43d7160	-1.7643242e-07
108	0x32329471	1.0394715e-08
109	0xb4fbb188	-4.6881564e-07
110	0x3605f1ac	1.9959216e-06
111	0x33104f12	3.3599527e-08
112	0x33d801e4	1.0058628e-07
113	0xb3f55abf	-1.1425208e-07
114	0xb5292e11	-6.302444e-07
115	0x33c8b49c	9.3460784e-08
116	0x323af184	1.0881539e-08
117	0x352749ab	6.231955e-07
118	0x34687c56	2.1651917e-07
119	0x346ecffc	2.2241142e-07
120	0xb5620fa4	-8.421432e-07
121	0xb32325d2	-3.7985792e-08
122	0x3543316f	7.2715096e-07
123	0x3466e5f1	2.1504071e-07
124	0xb4a187b6	-3.008733e-07
125	0x3408b6d8	1.2732505e-07
126	0x33507c18	4.8541636e-08
127	0x35177d14	5.6433896e-07

embedding_extractor.1.weight f4 [128]
0	0x3ea84aca	0.3286956
1	0x3ea7233c	0.3264407
2	0x3e92ffbc	0.28710735
3	0x3e93a309	0.28835323
4	0x3ea44539	0.32084063
5	0x3ea0a3ea	0.31375057
6	0x3eb2c260	0.3491392
7	0x3eac590c	0.33661687
8	0x3e976221	0.29567054
9	0x3eae94cc	0.34097898
10	0x3e90d133	0.28284606
11	0x3ecd436f	0.4009051
12	0x3eb16ff1	0.34655717
13	0x3ebc9543	0.36832628
14	0x3ea39c1d	0.31955042
15	0x3ead1289	0.33803204
16	0x3e909169	0.2823594
17	0x3ea11f8a	0.31469375
18	0x3e95810c	0.29200017
19	0x3e9b5af6	0.30342835
20	0x3ec10813	0.37701473
21	0x3e9ed20d	0.3101963
22	0x3e96745e	0.29385656
23	0x3ea7e5a5	0.32792392
24	0x3ea6fab9	0.3261316
25	0x3eabc0c4	0.33545506
26	0x3e8aecbc	0.2713374
27	0x3e9418dc	0.28925216
28	0x3e9924a2	0.2991076
29	0x3e954a25	0.2915813
30	0x3e9484d0	0.29007578
31	0x3e8d3175	0.27576795
32	0x3ea075ac	0.31339777
33	0x3ea5b28a	0.32362777
34	0x3e8cbef9	0.2748945
35	0x3e954f60	0.2916212
36	0x3e8ec8ba	0.27887517
37	0x3e9ad346	0.30239314
38	0x3ea8af38	0.3294618
39	0x3eae0c04	0.33993542
40	0x3e9a0235	0.3007981
41	0x3e93c60a	0.2886203
42	0x3eb46bed	0.3523859
43	0x3e998ee4	0.2999183
44	0x3eafd0b8	0.34338927
45	0x3ea2b34a	0.31777412
46	0x3ea02b7a	0.3128317
47	0x3ea40179	0.32032374
48	0x3e99409c	0.29932106
49	0x3e9cce0b	0.30625948
50	0x3e997de1	0.2997885
51	0x3eb4b6d2	0.3529573
52	0x3ea2b49f	0.31778428
53	0x3eae3b8f	0.34029815
54	0x3eb03f74	0.3442341
55	0x3e95246a	0.29129344
56	0x3ea850c2	0.32874113
57	0x3eb1ebe9	0.34750298
58	0x3e981bcf	0.29708716
59	0x3e9e93aa	0.30972034
60	0x3ea0390b	0.3129352
61	0x3ea1ee68	0.31627202
62	0x3ea13a9f	0.31490037
63	0x3ebd097f	0.36921307
64	0x3eb147c0	0.34625053
65	0x3ea422ff	0.3205795
66	0x3ec5aad1	0.38606885
67	0x3ebd347c	0.36954105
68	0x3eaa5a3f	0.33271977
69	0x3eaf4d06	0.34238452
70	0x3ea12b74	0.31478465
71	0x3e9bac40	0.30404854
72	0x3eae4f4a	0.34044868
73	0x3e8ce585	0.2751886
74	0x3ea0559f	0.31315324
75	0x3e9841dc	0.29737747
76	0x3e97dc70	0.29660368
77	0x3ea24932	0.3169647
78	0x3eeb3496	0.45938557
79	0x3ebe154f	0.37125632
80	0x3e9de306	0.30837268
81	0x3ea1e53a	0.31620198
82	0x3ea2dac0	0.31807518
83	0x3e9098ff	0.28241727
84	0x3e8f0aab	0.27937827
85	0x3ebe483d	0.37164488
86	0x3eba2771	0.36358216
87	0x3ec8c278	0.39210868
88	0x3eb021da	0.34400827
89	0x3edae917	0.42755958
90	0x3e98a5f1	0.29814103
91	0x3e9d3f21	0.30712226
92	0x3eaf48b0	0.34235144
93	0x3e904e0e	0.2818455
94	0x3eb81be8	0.3595879
95	0x3e9574c8	0.2919066
96	0x3e979ef5	0.29613462
97	0x3eb74771	0.35796693
98	0x3e8b75ac	0.27238214
99	0x3ec668b5	0.3875176
100	0x3eae21a0	0.3401003
101	0x3ea69eab	0.3254293
102	0x3ea1dfd3	0.31616077
103	0x3ea0680b	0.31329378
104	0x3e9cf4c7	0.306555
105	0x3ea88cf5	0.32920042
106	0x3ecbe73e	0.3982486
107	0x3e9cd233	0.3062912
108	0x3e971b60	0.29513073
109	0x3eab653f	0.33475682
110	0x3ebb6b4e	0.36605304
111	0x3e8da3e2	0.27664095
112	0x3e91c8c0	0.28473473
113	0x3e94bc6d	0.29050007
114	0x3ec1d031	0.3785415
115	0x3ecfb92a	0.40570956
116	0x3e8d11d6	0.2755267
117	0x3e9ffc12	0.31247002
118	0x3e968fa2	0.29406458
119	0x3e8e09a0	0.27741718
120	0x3ea3a2a0	0.3196001
121	0x3e96e0d2	0.294684
122	0x3ebc7131	0.36805108
123	0x3ea1c26f	0.31593654
124	0x3e9bba66	0.30415648
125	0x3e91bc9d	0.28464213
126	0x3e9e5030	0.30920553
127	0x3e9d2c09	0.3069766

embedding_extractor.1.bias f4 [128]
0	0xbce806d0	-0.028323561
1	0xbc851627	-0.016245915
2	0xbb3ad49d	-0.0028508075
3	0xbc82ff12	-0.015990768
4	0xbc9efca2	-0.019407574
5	0xbc35346d	-0.011059863
6	0xbcf91947	-0.030407561
7	0xbce643aa	-0.028108437
8	0xbc57be89	-0.013167986
9	0xbd16e31b	-0.03683768
10	0xbc3a6c64	-0.011378381
11	0xbd762672	-0.060095258
12	0xbd15ea85	-0.03660061
13	0xbcf5cb74	-0.03000424
14	0xbd2593e7	-0.040424254
15	0xbc96ead0	-0.018422514
16	0xbb69293b	-0.0035577554
17	0xbca29910	-0.019848377
18	0xbbdecf24	-0.0067995954
19	0xbc414fbc	-0.011798795
20	0xbd67dae0	-0.05660522
21	0xbca10862	-0.019657318
22	0xbc72b411	-0.014813439
23	0xbcb7f178	-0.022454008
24	0xbcbaac2f	-0.022787182
25	0xbcace172	-0.021103594
26	0xbc4a07fc	-0.012331005
27	0xbc8a6f36	-0.016898733
28	0xbc868e6a	-0.01642533
29	0xbc3bf5be	-0.011472164
30	0xb723e8ec	-9.769788e-06
31	0xbc7577fa	-0.014982218
32	0xbca87b9a	-0.02056675
33	0xbce6b3ba	-0.028161872
34	0xbc478ef7	-0.012180082
35	0xbc80198a	-0.015637178
36	0xbc03134a	-0.008000204
37	0xbcd875a9	-0.026423292
38	0xbcc89d74	-0.024489142
39	0xbcbc8f6c	-0.023017608
40	0xbcbdc1ad	-0.02316364
41	0xbc58a588	-0.0132230595
42	0xbceabde8	-0.028655007
43	0xbc9b1ab8	-0.018933639
44	0xbd019cc0	-0.03164363
45	0xbcaa6852	-0.020801697
46	0xbc20aaa1	-0.009806306
47	0xbcf8f09b	-0.030388167
48	0xbbada9c1	-0.0052997773
49	0xbcb91bc0	-0.02259624
50	0xbcc93e08	-0.024565712
51	0xbce08dae	-0.027411308
52	0xbc9cde61	-0.019149007
53	0xbd0c47f2	-0.0342483
54	0xbce0baf3	-0.027432894
55	0xbc25fa3c	-0.010130461
56	0xbcc47cb1	-0.023985239
57	0xbd3a43b4	-0.045474723
58	0xbcd8a497	-0.02644567
59	0xbcad9d3e	-0.021193143
60	0xbcc70963	-0.024296468
61	0xbc885da6	-0.016646218
62	0xbcd0387d	-0.02541756
63	0xbd19a937	-0.03751489
64	0xbd1f5534	-0.038899615
65	0xbc955651	-0.018229635
66	0xbd58b09d	-0.052902807
67	0xbd2bb35c	-0.041919097
68	0xbc0c46a6	-0.008561766
69	0xbcbe14f2	-0.023203347
70	0x39b098a5	0.00033683065
71	0xbc61ce4b	-0.013782094
72	0xbcd39ead	-0.025832498
73	0xbc68a85c	-0.014200296
74	0xbd008ed7	-0.031386223
75	0xbc8e382e	-0.017360773
76	0xbc683c09	-0.01417447
77	0xbc90e142	-0.017685536
78	0xbd891e36	-0.066952154
79	0xbd366b61	-0.044536
80	0xbcd202d6	-0.025636118
81	0xbc856057	-0.01628129
82	0x3c4cabc1	0.012492121
83	0xbc298ad3	-0.01034804
84	0xbc63418e	-0.01387061
85	0xbd5fdd31	-0.054654304
86	0xbcdcc1df	-0.026947914
87	0xbd49cc90	-0.04926735
88	0xbd2d4bbb	-0.04230855
89	0xbd83b8d2	-0.06431736
90	0xbcbd6bb4	-0.023122646
91	0xbca8f884	-0.020626314
92	0xbcdd917f	-0.027046917
93	0xbc6f672c	-0.014612
94	0xbd2345d5	-0.03986152
95	0xbc2276fb	-0.0099160625
96	0xbacba857	-0.001553784
97	0xbd1154bf	-0.03548121
98	0xbc75ce12	-0.015002744
99	0xbd267620	-0.040639997
100	0xbc91b082	-0.01778436
101	0xbce2ac03	-0.027669912
102	0xbcb2bd22	-0.021818701
103	0xbcd0c69b	-0.025485327
104	0xbd02c94e	-0.03193026
105	0xbc7f39eb	-0.015577774
106	0xbd565308	-0.05232528
107	0xbc83e470	-0.016100138
108	0xbc3bc0bc	-0.011459526
109	0xbd28dde0	-0.04122722
110	0xbd2da457	-0.042393055
111	0xbc05036e	-0.0081184935
112	0xbc437a2a	-0.011930982
113	0xbc658271	-0.01400815
114	0xbd426623	-0.047460686
115	0xbd8ff51d	-0.070291735
116	0xbc002d9a	-0.007823372
117	0xbcbbc4bc	-0.022920959
118	0xbc0b030f	-0.008484616
119	0xbbe3e299	-0.006954503
120	0xbc9bfc80	-0.0190413
121	0xbc4341da	-0.011917556
122	0xbd183988	-0.03716424
123	0xbcaa200e	-0.020767238
124	0xbcc580c7	-0.024109257
125	0xbc1b276f	-0.009469851
126	0xbcbb7fed	-0.022888148
127	0xbc985052	-0.018592987

embedding_extractor.1.running_mean f4 [128]
0	0x3d400329	0.046878014
1	0xbbf9c624	-0.007622497
2	0x3cccfb02	0.025022034
3	0xbc49b63b	-0.012311514
4	0x3d83f81c	0.064438075
5	0xbc8e7ba0	-0.017392933
6	0x3d8b6725	0.06806783
7	0xba901b2d	-0.0010994427
8	0xbd2edd93	-0.04269178
9	0x3d9970c7	0.07492214
10	0xbc2761f8	-0.010216229
11	0x3d8c25be	0.06843136
12	0xbccc804a	-0.024963517
13	0x3d6dd862	0.058067687
14	0x3cd88e46	0.026435029
15	0x3cc6a85d	0.024250204
16	0x3c92fcd5	0.017942825
17	0xbd048927	-0.03235736
18	0x3d09a50b	0.033604663
19	0xbd7293d5	-0.059223015
20	0x3d85bd07	0.06530195
21	0xbcd56735	-0.02605019
22	0x3c93831c	0.018006854
23	0xbd767e47	-0.06017902
24	0xbcd23b46	-0.02566303
25	0x3d470b03	0.048594486
26	0xbcf18210	-0.029480964
27	0xbc5e5bd6	-0.0135717
28	0xbd08c934	-0.033395007
29	0x3c2739de	0.010206668
30	0x3cbf41fc	0.023346893
31	0x3cf011b5	0.029305318
32	0x3d200c93	0.03907449
33	0x3d3634e2	0.044484027
34	0x3c3ae5c9	0.011407324
35	0x3be4c136	0.0069810404
36	0xba5c6694	-0.00084076193
37	0x3d411850	0.047142327
38	0x3bd9ce53	0.00664691
39	0xbc086bf8	-0.008326523
40	0x3c757d25	0.01498345
41	0xbcde24d1	-0.027117165
42	0x3c542970	0.012949333
43	0x3cd2fd4b	0.025755545
44	0xbd3f8b94	-0.04676397
45	0x3ceda4d3	0.029009258
46	0x3cd7245e	0.026262458
47	0x3c63624c	0.013878416
48	0x3d2d99b9	0.04238293
49	0xbd06fb98	-0.032954782
50	0x39936b48	0.00028117956
51	0x3d29f15c	0.041489944
52	0x3d073932	0.03301353
53	0x3cf1144e	0.029428627
54	0xbd4e3c16	-0.05035027
55	0x3c438734	0.01193409
56	0x3cc31827	0.023815228
57	0x3d58c309	0.052920375
58	0x3cdc3fac	0.02688583
59	0xbb97902d	-0.0046253414
60	0xbc14922b	-0.009068052
61	0xbccf4335	-0.025300601
62	0x398bb81d	0.0002664932
63	0x3cf9a508	0.0304742
64	0x3cdd0976	0.02698205
65	0x3b9f0c8e	0.0048537916
66	0x3dabd745	0.08390669
67	0x3beeaffc	0.0072841626
68	0x3d7c1996	0.06154784
69	0x3d7e58d2	0.062096424
70	0x3d1e3ddc	0.038633212
71	0xbd42112b	-0.047379654
72	0x3c46f248	0.012142725
73	0x3aab7083	0.0013079796
74	0x3ce2f69a	0.02770548
75	0xbbaea424	-0.0053296257
76	0xbc576a66	-0.013147926
77	0x3d0a1b52	0.03371746
78	0x3d9637a6	0.07334833
79	0x3d135047	0.03596523
80	0x3d1c8f15	0.03822239
81	0x3d490923	0.04908098
82	0x3d30473c	0.043036684
83	0xbcd1fbe0	-0.025632799
84	0x3c10a0ba	0.008827383
85	0x3d0bc16f	0.03412002
86	0x3d3fef60	0.046859145
87	0x3c93d62f	0.018046467
88	0x3db74ec8	0.08950573
89	0x3c0f966f	0.0087638935
90	0x3bbcde3d	0.0057637976
91	0x3c359d36	0.011084845
92	0x3ce4c897	0.02792768
93	0xbc1a9deb	-0.009437065
94	0x3b38d28b	0.0028201665
95	0x3c0c3cdf	0.008559435
96	0x3c590326	0.01324538
97	0xbd0f5ac2	-0.034998663
98	0x3c883648	0.016627446
99	0x3cdda61a	0.027056742
100	0xbd7875db	-0.06065927
101	0xbd46be50	-0.04852134
102	0x3b32fd60	0.0027311668
103	0x3cb5d584	0.022196539
104	0x3ae32048	0.0017328346
105	0xbd21d8db	-0.03951345
106	0x3cc8607a	0.024460066
107	0xbd075290	-0.033037722
108	0xbd189bbe	-0.037257902
109	0x3c0a63b2	0.008446621
110	0x3d2fc8d2	0.042916127
111	0xbcb15498	-0.021646783
112	0xbc9d806c	-0.019226275
113	0x3cdd82ae	0.027039852
114	0x3b7428a1	0.0037255662
115	0x3da881c1	0.082278736
116	0x3cd87d29	0.026426869
117	0xbc2c109f	-0.01050201
118	0x3d624931	0.055245582
119	0x3c6213b8	0.013798647
120	0x3c52e49b	0.012871887
121	0xbc86388a	-0.016384382
122	0x3b84f79a	0.0040578367
123	0x3d1d709e	0.03843748
124	0x3c67ee70	0.014155969
125	0x3ccc05ec	0.024905168
126	0x3c257096	0.010097643
127	0x3d1c4522	0.038151868

embedding_extractor.1.running_var f4 [128]
0	0x3b02e4f3	0.001997289
1	0x3b1587d6	0.002281656
2	0x3b4972d1	0.0030738602
3	0x3b203715	0.0024446894
4	0x3b0083ab	0.001960973
5	0x3b04291d	0.0020166107
6	0x3b4a2535	0.003084493
7	0x3b3333b0	0.002734404
8	0x3b04923e	0.0020228769
9	0x3b25cd88	0.0025299508
10	0x3b3db3fc	0.002894639
11	0x3b2c5775	0.0026297246
12	0x3b0d0321	0.0021516758
13	0x3b1f0540	0.0024264604
14	0x3b0ccaa0	0.0021483079
15	0x3b3403f1	0.002746817
16	0x3b37ec66	0.0028064488
17	0x3b8d7266	0.004316616
18	0x3b2c054d	0.0026248277
19	0x3b4cd123	0.0031252585
20	0x3aea3b46	0.0017870448
21	0x3b001a31	0.0019546861
22	0x3b73a371	0.0037176276
23	0x3ae4ba51	0.0017450546
24	0x3b0b3134	0.0021239044
25	0x3ae36680	0.0017349273
26	0x3b067861	0.0020518529
27	0x3b1c9dff	0.0023897884
28	0x3b26a243	0.0025426305
29	0x3b4e6e11	0.003149871
30	0x3b3fda2f	0.0029274335
31	0x3ae2b95c	0.0017297673
32	0x3b4a24fa	0.0030844794
33	0x3ac3505f	0.0014901272
34	0x3b6e81e8	0.0036393348
35	0x3b0f34c1	0.0021851512
36	0x3b322a7b	0.0027185965
37	0x3b5c02d2	0.0033571017
38	0x3aeed921	0.0018222668
39	0x3b026bbf	0.0019900647
40	0x3b2f143d	0.0026714944
41	0x3b26932a	0.0025417306
42	0x3af42a73	0.0018628374
43	0x3b0fb832	0.0021929857
44	0x3af6b521	0.0018822291
45	0x3b03269e	0.0020012031
46	0x3b25f82a	0.002532492
47	0x3b0b76ed	0.0021280602
48	0x3b5d1e40	0.0033739954
49	0x3b49ce2c	0.0030793054
50	0x3b154019	0.00227738
51	0x3b32375d	0.0027193644
52	0x3b3cee6a	0.002882863
53	0x3b11a031	0.0022220726
54	0x3aefdd6c	0.0018300242
55	0x3b4313a5	0.0029766348
56	0x3b373423	0.002795466
57	0x3b23da32	0.002500188
58	0x3b2e6250	0.0026608892
59	0x3b0f0b02	0.002182663
60	0x3a9e9e31	0.0012101588
61	0x3b1d6988	0.00240192
62	0x3b04676d	0.0020203248
63	0x3b458a3b	0.0030142206
64	0x3b0c46f0	0.0021404587
65	0x3b201ad9	0.0024430065
66	0x3ad5b67f	0.0016304998
67	0x3ac35815	0.001490357
68	0x3b2a14ac	0.0025952263
69	0x3b2fedce	0.0026844623
70	0x3b0acf63	0.002118074
71	0x3b3e261e	0.0029014419
72	0x3acde9f3	0.0015709981
73	0x3b11cbff	0.0022246835
74	0x3ae64d3b	0.0017570624
75	0x3b5780fd	0.003288328
76	0x3b1d8cc2	0.0024040197
77	0x3b2ee0de	0.0026684324
78	0x3ad41c3a	0.0016182729
79	0x3b46a45d	0.003031037
80	0x3b78dd68	0.0037973765
81	0x3b0856fb	0.0020803798
82	0x3b1a0dc8	0.002350675
83	0x3b259ee6	0.0025271713
84	0x3ba47096	0.005018304
85	0x3ab0c292	0.0013485721
86	0x3b029e98	0.0019930955
87	0x3b1c2817	0.0023827606
88	0x3af9f899	0.001907128
89	0x3b02efb4	0.00199793
90	0x3b37c595	0.0028041352
91	0x3b0ff7c0	0.002196774
92	0x3b5a2e61	0.0033291804
93	0x3b6f0ccb	0.003647613
94	0x3b090ba6	0.0020911484
95	0x3ad386f5	0.0016138243
96	0x3b860293	0.0040896623
97	0x3b3503b0	0.0027620606
98	0x3b277549	0.0025552085
99	0x3ad447f8	0.0016195765
100	0x3b076fe4	0.0020666057
101	0x3b1a24a6	0.002352038
102	0x3b1f695f	0.002432428
103	0x3b3b6148	0.002859192
104	0x3b4ac78a	0.0030941688
105	0x3b0f7731	0.0021891112
106	0x3b070efc	0.0020608297
107	0x3b03859c	0.002006865
108	0x3b6a2a49	0.003573077
109	0x3b41e7b5	0.002958757
110	0x3afc0d38	0.0019230014
111	0x3b23e9a3	0.0025011085
112	0x3b82f940	0.003996998
113	0x3b0b8699	0.0021289943
114	0x3b195526	0.00233967
115	0x3af3be93	0.0018596224
116	0x3b28f0ba	0.002577825
117	0x3b1b0e77	0.0023659745
118	0x3ace26aa	0.0015728076
119	0x3b23ffc8	0.0025024284
120	0x3b04cce9	0.0020263738
121	0x3b63c008	0.003475191
122	0x3ad78578	0.0016442975
123	0x3b334e5e	0.0027359943
124	0x3b014858	0.0019726958
125	0x3b3ccd10	0.002880875
126	0x3b18c0f4	0.0023308368
127	0x3b388bf2	0.0028159586

embedding_extractor.4.weight f4 [64, 128]
0	0xbb8a1d15	-0.0042148926
1	0xbbba1e3d	-0.005679874
2	0x3c3f347b	0.011670227
3	0xbc393736	-0.011304667
4	0xbc768c41	-0.015048088
5	0xbca41efa	-0.020034302
6	0xbc268bd7	-0.010165176
7	0xbb1646f1	-0.0022930468
8	0x3b688320	0.0035478547
9	0xb93ced88	-0.00018017564
10	0xbc1a1a44	-0.009405676
11	0xbb9c58fe	-0.004771351
12	0x3b448739	0.0029987826
13	0xbc622c87	-0.013804561
14	0x3c421f95	0.01184835
15	0xbc4e68f9	-0.01259827
16	0xbb4e2d12	-0.003145997
17	0xbbb35fe4	-0.0054740775
18	0x3accea08	0.0015633712
19	0xbbdfa9f5	-0.0068256804
20	0x3abbf693	0.0014340453
21	0x39b723df	0.00034931206
22	0xbba5eb2b	-0.0050634346
23	0xbc87ae69	-0.016562657
24	0x3c8a94ef	0.01691672
25	0xbc1a3d71	-0.009414063
26	0xbac1af42	-0.0014776962
27	0x3c667bf3	0.014067638
28	0x3b9f1c9d	0.004855706
29	0x3bfc74bb	0.007704345
30	0x3b503113	0.0031767532
31	0x3abeb01e	0.0014548337
32	0xbbccfe1b	-0.0062558777
33	0xbc4f19d4	-0.012640435
34	0xba953c20	-0.0011385716
35	0x3be07960	0.0068504065
36	0x3bfaa25c	0.0076487493
37	0x3c64bc4b	0.013960908
38	0xbc1a124c	-0.009403776
39	0xbca15e38	-0.019698247
40	0x3c424659	0.0118575925
41	0xbb9259f1	-0.0044662883
42	0xbc8ddfc1	-0.017318608
43	0x39115095	0.00013858297
44	0x3c207a4f	0.009794786
45	0xbca901ea	-0.020630796
46	0xbc4b5803	-0.01241112
47	0xbb0a07d7	-0.0021061802
48	0x39694f01	0.00022250043
49	0x3c65add9	0.014018499
50	0xbbf6d2fd	-0.007532476
51	0x3cae2f36	0.021262746
52	0xbbbf3a8f	-0.005835838
53	0x3bb47e77	0.00550824
54	0x3c8727a1	0.016498389
55	0x3b78d2fe	0.0037967558
56	0xbc071084	-0.008243684
57	0xbbf8a649	-0.007588182
58	0x3c0baa4d	0.00852449
59	0x3c734a2c	0.014849227
60	0xbad40c5d	-0.0016178001
61	0x3c9934a4	0.018701859
62	0x3c01d712	0.007924812
63	0xbbb5a2a2	-0.005543069
64	0xbb8cc5e6	-0.0042960523
65	0x3b52f394	0.003218864
66	0xbc80ff8b	-0.015746852
67	0xbc344a86	-0.011004096
68	0xbc384c19	-0.011248612
69	0xbcacfbe7	-0.02111621
70	0xbce13c65	-0.027494619
71	0xbc2a6b4a	-0.010401556
72	0x3b72a7da	0.0037026317
73	0xbaef8262	-0.001827311
74	0xbc743ffb	-0.014907832
75	0x3c03d98a	0.008047471
76	0xbb9ead5d	-0.004842444
77	0xba7576b6	-0.00093636976
78	0xbc5d6d87	-0.013514883
79	0xbbe0bc12	-0.006858357
80	0xbc40f857	-0.011777959
81	0xbc3ae3dc	-0.011406865
82	0xbb229010	-0.0024805106
83	0xbbbabe5c	-0.005698962
84	0xba78ce43	-0.00094911846
85	0x3b7b4d70	0.0038345717
86	0xbc8d8a9b	-0.017278006
87	0xbc73a5ee	-0.014871104
88	0xbc136041	-0.008995117
89	0xbc81f5a1	-0.015864195
90	0x3b91ef42	0.0044535706
91	0x3c8ef489	0.017450588
92	0xbc790c1d	-0.015200642
93	0x37f98fb8	2.9750037e-05
94	0xbc0bb2c8	-0.0085265115
95	0x3af7a4c5	0.001889371
96	0x3c2a2421	0.01038459
97	0xbc3feab0	-0.011713669
98	0xbb858078	-0.0040741526
99	0x3c5cf78d	0.013486755
100	0x3a65284a	0.000874166
101	0xbbdb8534	-0.0066992287
102	0x3c2ea74e	0.010660006
103	0x38985163	7.263084e-05
104	0x3b6baab0	0.0035959892
105	0xbb415b6e	-0.002950396
106	0xbc4d29d1	-0.012522177
107	0xbb3068c5	-0.0026917916
108	0x3a36feaa	0.0006980697
109	0x3c8e0f6d	0.01734134
110	0x3c16c1f3	0.009201515
111	0xbba8db54	-0.005153099
112	0xba6b4182	-0.00089743
113	0x3c51bde6	0.012801623
114	0xbc24f093	-0.010067123
115	0xbc2e2f11	-0.010631339
116	0xbb9dc192	-0.004814335
117	0xbbd5bb06	-0.006522539
118	0xbc8ab46a	-0.016931731
119	0xbaf7a2a9	-0.0018893081
120	0x3bdb5972	0.0066940123
121	0xbad1d9ad	-0.0016010307
122	0xbc93facb	-0.018063923
123	0x3b2a2409	0.002596142
124	0xbbb6d250	-0.0055792704
125	0xbc258320	-0.010102063
126	0x3bc5cd79	0.006036457
127	0xbb69a65e	-0.003565214
128	0xbc581822	-0.013189347
129	0x3bb493b6	0.0055107726
130	0x3bf48ffb	0.007463453
131	0xbbd5c15b	-0.006523294
132	0xbce73538	-0.028223619
133	0x3bce21f0	0.0062906668
134	0xbc6c027e	-0.014404891
135	0x3caa1c55	0.020765463
136	0x3c3ae6d8	0.0114075765
137	0x3a6409f1	0.0008698991
138	0xbc717b83	-0.01473892
139	0xbc142566	-0.00904212
140	0x3b81abe3	0.003957258
141	0xbacc0366	-0.0015564978
142	0x3bee0935	0.007264281
143	0x3c1ce15d	0.009575215
144	0xbca64b35	-0.020299533
145	0x3bb5128e	0.0055258935
146	0xbbb99a83	-0.005664171
147	0xbc8517f5	-0.016246775
148	0x3a8fffd0	0.0010986272
149	0x3c743a0e	0.014906419
150	0x3b86158d	0.0040919245
151	0x3bd5cd73	0.0065247356
152	0x3bd536f2	0.006506794
153	0xbc44d106	-0.012012726
154	0x3c8b9c4b	0.0170423
155	0x3bb41011	0.0054950793
156	0xbc239be7	-0.0099859005
157	0x3c0224f9	0.007943385
158	0xbbeb064e	-0.0071723824
159	0xbbf7d2a7	-0.0075629535
160	0xb92ab75e	-0.00016280773
161	0xbc6ad3b9	-0.014332705
162	0xbc93c824	-0.01803977
163	0x3c7ffb83	0.01562393
164	0x3c92e84c	0.017933033
165	0xbbf0b91a	-0.0073462846
166	0xbbde9b4b	-0.0067934147
167	0x3a50c94e	0.0007964567
168	0xbb175eb7	-0.0023097226
169	0xbc47ebc1	-0.012202204
170	0xbb5a2e14	-0.0033291625
171	0xbbcc0ec9	-0.0062273485
172	0x3a20fd4b	0.0006141259
173	0xbc909d55	-0.017653147
174	0xbb0e200f	-0.002168659
175	0x3c986d94	0.018606938
176	0x3c6bf147	0.014400787
177	0xbbfdb6af	-0.007742725
178	0xbbf8ae5b	-0.007589144
179	0x3a91823b	0.0011101434
180	0xbbe9081c	-0.0071115624
181	0x3d138c72	0.03602261
182	0xbbe3dc1c	-0.0069537293
183	0xbb5d1bdf	-0.0033738536
184	0xbbe5e9f2	-0.007016414
185	0xbbd9d332	-0.006647491
186	0xbb9e411d	-0.0048295395
187	0x3c54affb	0.01298141
188	0x3c2a7a30	0.010405108
189	0xbc9f2962	-0.019428913
190	0x3ba11ebe	0.004916995
191	0xbb4143b1	-0.002948981
192	0xbb5cce6b	-0.003369237
193	0xbaab6a8f	-0.0013078022
194	0xbc8e5763	-0.017375654
195	0xbc21ff06	-0.0098874625
196	0xbb890551	-0.004181542
197	0x39c57100	0.0003765896
198	0xbc02ea34	-0.007990409
199	0xbaa9c96a	-0.0012953703
200	0xbbb203c5	-0.0054325783
201	0x3bff9f3f	0.007800966
202	0xbc49a3f5	-0.012307157
203	0x3c122ff9	0.00892257
204	0x3c8cb1ec	0.017174684
205	0x3c148b83	0.009066465
206	0xbc81bdc1	-0.015837552
207	0xbc6f89d3	-0.014620262
208	0x3ba28fe9	0.004961003
209	0x38b67f35	8.7021304e-05
210	0xbbeff2da	-0.0073226513
211	0xbcb79e27	-0.02241428
212	0xbbc91dde	-0.0061375936
213	0x3b6097c6	0.0034270152
214	0xbc4732c3	-0.012158099
215	0xbb1a6514	-0.0023558782
216	0xbba3139d	-0.0049767033
217	0xbc365d27	-0.011130608
218	0xbb5aeadd	-0.003340415
219	0xbb016489	-0.0019743762
220	0x3ca40a5d	0.020024473
221	0xbcadcf42	-0.021216992
222	0x3ac567d2	0.0015060848
223	0xbbcea326	-0.00630607
224	0xbcc9e6d0	-0.024646193
225	0xbc63a259	-0.013893687
226	0xbc707b89	-0.014677891
227	0xbbbc127b	-0.0057395077
228	0xbc2254ee	-0.009907944
229	0x3bc33465	0.0059571736
230	0x3c4878fd	0.012235877
231	0xbb2faf65	-0.0026807424
232	0xbc0f7602	-0.008756163
233	0xbbd9bcdb	-0.006644828
234	0xbc87f6da	-0.0165972
235	0x3bebae74	0.0071924273
236	0xbc697970	-0.014250144
237	0x3c4f510a	0.012653599
238	0x3b5680b4	0.0032730522
239	0x3c5df5f6	0.013547411
240	0xbc48a0be	-0.012245355
241	0x38bce1f6	9.006627e-05
242	0xbc6102e8	-0.013733603
243	0xbc0fd64f	-0.0087791225
244	0xba85847c	-0.0010186578
245	0x3ba9547a	0.005167541
246	0xbc919733	-0.017772293
247	0x3b8b906e	0.0042591607
248	0xbc07146c	-0.008244615
249	0xbc507075	-0.012722124
250	0x38ce0f2b	9.825671e-05
251	0xbc4adbf5	-0.012381543
252	0x3cb7c8f6	0.022434693
253	0xbc9682d9	-0.01837294
254	0x3b96638d	0.004589504
255	0xbc8306cb	-0.01599445

embedding_extractor.4.bias f4 [64]
0	0x34f2e114	4.5239779e-07
1	0x3491d134	2.716057e-07
2	0xb4372409	-1.7056313e-07
3	0xb4906f10	-2.69029e-07
4	0xb517e840	-5.658985e-07
5	0xb3bc9aa4	-8.782561e-08
6	0xb27e18c8	-1.47903805e-08
7	0x343e72fb	1.7736959e-07
8	0x349979a2	2.858697e-07
9	0x359ad15a	1.1534823e-06
10	0x32b69294	2.1254245e-08
11	0xb47d7b7d	-2.3607386e-07
12	0xb5b809ac	-1.3711883e-06
13	0xb42b4535	-1.5950793e-07
14	0xb3c6028a	-9.220555e-08
15	0x341c7e9c	1.4574692e-07
16	0xb4582f3d	-2.0133753e-07
17	0x342c5a28	1.6051547e-07
18	0xb425dd57	-1.5447345e-07
19	0x345387c0	1.9700292e-07
20	0xb3d90bea	-1.0107017e-07
21	0x364bc4c3	3.0363888e-06
22	0x3583061b	9.762038e-07
23	0xb42366d7	-1.5217971e-07
24	0xb2934a84	-1.7146938e-08
25	0x34204fec	1.4930237e-07
26	0x343b1708	1.7424111e-07
27	0x331ed0d6	3.6977177e-08
28	0xb3206318	-3.734303e-08
29	0x328f319c	1.666995e-08
30	0x34142a17	1.3798886e-07
31	0x32fb84c6	2.9280624e-08
32	0xb5526720	-7.8381163e-07
33	0xb429f595	-1.5828694e-07
34	0x35c44398	1.462281e-06
35	0xb4868ea1	-2.506322e-07
36	0x34d135bb	3.8968378e-07
37	0x32aa4e98	1.9826345e-08
38	0x326daa4b	1.3833936e-08
39	0xb487b1fb	-2.5275207e-07
40	0xb3831566	-6.104055e-08
41	0x33d5ef7b	9.962147e-08
42	0x342a2d45	1.5848953e-07
43	0x348fb9bd	2.6770968e-07
44	0xb4c7b39d	-3.7197324e-07
45	0x33a09659	7.477929e-08
46	0x348d99d4	2.637522e-07
47	0xb37f1d1f	-5.93983e-08
48	0xb3f6fa5a	-1.1500806e-07
49	0xb527b541	-6.2476107e-07
50	0x3438a859	1.719758e-07
51	0x33f9c6e3	1.1631143e-07
52	0xb2e81127	-2.7016155e-08
53	0xb5334c6d	-6.679391e-07
54	0x340a7101	1.2893362e-07
55	0x348912fd	2.5532054e-07
56	0x35356bff	6.758491e-07
57	0x341d9094	1.4674362e-07
58	0x34384d54	1.7164467e-07
59	0x3400475c	1.194689e-07
60	0x34987664	2.8398347e-07
61	0x350ecf32	5.320063e-07
62	0x339c4509	7.2768735e-08
63	0x3590331f	1.0743714e-06

embedding_extractor.5.weight f4 [64]
0	0x3e9dee51	0.30845883
1	0x3e99956c	0.29996812
2	0x3ec94fda	0.39318734
3	0x3ea63d14	0.32468474
4	0x3ea70f7f	0.3262901
5	0x3e942d03	0.2894059
6	0x3ed50d70	0.41611814
7	0x3e9367e5	0.28790203
8	0x3e9ed21e	0.31019682
9	0x3e9aacb0	0.30209875
10	0x3e9915db	0.29899487
11	0x3eb5559c	0.35416877
12	0x3ed134e5	0.40860668
13	0x3ea39b83	0.31954584
14	0x3eb72791	0.35772374
15	0x3e9cbd47	0.30613157
16	0x3eb21a87	0.34785864
17	0x3ec6a446	0.38797206
18	0x3ea0e7af	0.3142676
19	0x3eab89d3	0.3350359
20	0x3e992ac2	0.29915434
21	0x3ecc359a	0.39884645
22	0x3ec8b74f	0.39202353
23	0x3ebc8ce0	0.3682623
24	0x3e8da7c0	0.27667046
25	0x3ec9caad	0.39412442
26	0x3ed313a7	0.4122593
27	0x3ebc60c7	0.36792585
28	0x3eda260e	0.42607158
29	0x3e9f2791	0.31084874
30	0x3ecc6fc8	0.39929032
31	0x3eca7f28	0.39550138
32	0x3e9fe3cd	0.31228486
33	0x3ea041d1	0.31300214
34	0x3ee77fa0	0.45214558
35	0x3ea65f39	0.32494524
36	0x3efdae4b	0.49547037
37	0x3e99dc49	0.30050877
38	0x3eb3bf6c	0.3510698
39	0x3eb0065e	0.34379858
40	0x3ec7947c	0.38980472
41	0x3e930b19	0.28719404
42	0x3ec9cc2e	0.3941359
43	0x3ee68a15	0.45027223
44	0x3e9c8fd7	0.3057849
45	0x3ea53dda	0.32273751
46	0x3eba2c50	0.36361933
47	0x3ec79c19	0.3898628
48	0x3edff4b5	0.43741384
49	0x3e9961e7	0.29957506
50	0x3ed64235	0.41847387
51	0x3e9d5a39	0.30732897
52	0x3ea3a014	0.31958067
53	0x3eaca773	0.33721504
54	0x3e8d9c48	0.27658296
55	0x3ea2fa17	0.31831428
56	0x3eadb139	0.33924273
57	0x3eb7552b	0.35807166
58	0x3ec2e192	0.38062721
59	0x3e9c8293	0.3056837
60	0x3e9fa87b	0.31183228
61	0x3eb1b130	0.34705496
62	0x3ebc5661	0.36784652
63	0x3eebb21e	0.4603433

embedding_extractor.5.bias f4 [64]
0	0x3cfce303	0.030869966
1	0x3cfe73e4	0.03106112
2	0x3c1b64cc	0.009484481
3	0x3bb45147	0.005502853
4	0x3b0f5a4c	0.002187389
5	0x3ce656af	0.028117506
6	0xbc9e060b	-0.01928999
7	0x3ca1eb60	0.019765556
8	0x3cd839be	0.026394721
9	0x3cc07ea0	0.02349788
10	0x3c7df432	0.015500115
11	0xbc8cbf1e	-0.017180976
12	0xbb896f84	-0.004194202
13	0xbb405bed	-0.0029351667
14	0x3c26819e	0.010162739
15	0x3cdf336e	0.027246203
16	0x3c1c9e33	0.009559202
17	0x3ba1f48e	0.0049424833
18	0xbadc8ad4	-0.0016826042
19	0x3bbc3a8f	0.0057442854
20	0x3cfd46a5	0.030917475
21	0xbc6139a0	-0.013746649
22	0x3b93b810	0.004508026
23	0xbc2e6c4e	-0.010645939
24	0x3c9f1695	0.019419948
25	0xbc7a9747	-0.015294856
26	0xbd0d098c	-0.034432933
27	0xbb8f98bd	-0.0043822215
28	0xbd081059	-0.033218715
29	0x3cb46d89	0.022024887
30	0xbc8891cb	-0.016671082
31	0xbc8c4c95	-0.01712636
32	0x3c926375	0.01786969
33	0x3ce40d38	0.027838334
34	0xbd158e8f	-0.036512908
35	0x3ca58484	0.02020479
36	0xbd359247	-0.044328954
37	0x3ceb4b1b	0.028722337
38	0x3c93b269	0.018029409
39	0x3c9be1f4	0.019028641
40	0x3c333c11	0.010939614
41	0x3c931e88	0.017958894
42	0xbba190d5	-0.0049305954
43	0xbd1036db	-0.035208564
44	0x3cf399b1	0.029736372
45	0x3bbec71d	0.005822076
46	0x3c56f3e9	0.013119676
47	0x3b21864d	0.00246467
48	0xbcdf0146	-0.027222287
49	0x3b909e52	0.0044134045
50	0xbccdef06	-0.02513839
51	0x3cbada14	0.022809066
52	0x3ca07119	0.01958518
53	0x3aa8402e	0.001283651
54	0x3c9a3a94	0.01882676
55	0xbb6d5579	-0.0036214276
56	0x3c95b40f	0.018274335
57	0xbb46bc3b	-0.0030324596
58	0x3b5a326d	0.0033294216
59	0x39d1ce45	0.0004001727
60	0x3cad9f01	0.021193983
61	0x3c0922d7	0.008370123
62	0xbc0f5ebf	-0.008750617
63	0xbd35f1e5	-0.04442014

embedding_extractor.5.running_mean f4 [64]
0	0xbd28d2d4	-0.041216686
1	0xbd24f72c	-0.040274784
2	0xbc99dbc0	-0.018781543
3	0xbca0d918	-0.019634768
4	0xbc494c8e	-0.0122863185
5	0xbcebc084	-0.028778322
6	0x3c1530d2	0.009105878
7	0xbc68bc1f	-0.014205008
8	0xbd528444	-0.05139567
9	0xbd3f2772	-0.046668477
10	0xbd1d236e	-0.038363867
11	0xbba14600	-0.0049216747
12	0xbd38e624	-0.045141354
13	0xbcb4af10	-0.022056133
14	0xbd2c335c	-0.042041168
15	0xbd203616	-0.03911408
16	0xbd0d3f4a	-0.034484185
17	0xbd28b01a	-0.04118357
18	0x3bf5a108	0.007496003
19	0xbcef2f09	-0.029197233
20	0xbd493ec4	-0.049132124
21	0xbcc19e6a	-0.023635108
22	0xbd467761	-0.048453692
23	0x3c82eb64	0.015981384
24	0xbcd2979b	-0.025707057
25	0xbc6c9aea	-0.014441231
26	0xbc4fb130	-0.012676522
27	0xbd53d35c	-0.05171524
28	0x3bbc1efa	0.0057409974
29	0xbd4f2e6c	-0.05058138
30	0xbc8bb31c	-0.01705318
31	0xbc1caf1f	-0.0095632365
32	0xbcbe086b	-0.023197373
33	0xbcf78f9b	-0.030219844
34	0xbb8359d7	-0.0040085125
35	0xbd66f5ba	-0.056386687
36	0xbd5bac65	-0.053631205
37	0xbd1890e3	-0.03724755
38	0xbd67a039	-0.056549285
39	0xbd572a5e	-0.05253064
40	0xbd5ff62c	-0.054678127
41	0xbd08dc1b	-0.033413034
42	0xbc46bcd9	-0.012129986
43	0xbc4e80f8	-0.012603991
44	0xbd30d73f	-0.043174025
45	0xbd100488	-0.03516057
46	0xbcfca5dc	-0.030840807
47	0xbd12b533	-0.035817336
48	0xbcab54ea	-0.020914514
49	0xbc3439f1	-0.011000142
50	0xbb185782	-0.0023245518
51	0xbd244839	-0.04010794
52	0xbd3c1967	-0.045922663
53	0xbcbf148a	-0.023325223
54	0xbcc29241	-0.02375138
55	0xbb811bab	-0.003940066
56	0xbcf5cf99	-0.030006217
57	0x3c8f87ef	0.017520873
58	0xbd5b2ef2	-0.053511567
59	0x3c4f72c6	0.012661641
60	0xbc82c94e	-0.01596513
61	0xbd81274a	-0.06306322
62	0xbc428a9d	-0.011873868
63	0x3c65e232	0.01403098

embedding_extractor.5.running_var f4 [64]
0	0x3b130c84	0.002243788
1	0x3b078992	0.0020681364
2	0x3b9fba79	0.004874524
3	0x3b16c9cc	0.0023008464
4	0x3b5c04fa	0.0033572302
5	0x3ae4b180	0.0017447919
6	0x3c1d7be0	0.009612054
7	0x3aef2212	0.0018244407
8	0x3b293acf	0.0025822406
9	0x3aea2a0c	0.0017865314
10	0x3b305914	0.0026908563
11	0x3b9c6155	0.004772345
12	0x3bcdc64b	0.006279742
13	0x3b25bb7d	0.0025288754
14	0x3b9f7301	0.0048660045
15	0x3b322f5f	0.002718888
16	0x3b9c2dfb	0.0047662235
17	0x3bbd9249	0.005785261
18	0x3b2fc90d	0.0026822716
19	0x3b02810b	0.0019913341
20	0x3af4d262	0.0018678422
21	0x3c03ea97	0.008051536
22	0x3bbcc8e2	0.005761252
23	0x3bd4e7f4	0.0064973775
24	0x3a822e33	0.0009931981
25	0x3be9dd93	0.0071370094
26	0x3c25241a	0.010079408
27	0x3bae5ea9	0.005321343
28	0x3c1e8d64	0.009677265
29	0x3b4efade	0.0031582634
30	0x3c160025	0.009155308
31	0x3c031a61	0.008001895
32	0x3b27ad8b	0.0025585617
33	0x3aeb1e48	0.0017938102
34	0x3c396e50	0.011317804
35	0x3b800e5c	0.003907962
36	0x3c84f23e	0.016228791
37	0x3ae352ee	0.001734344
38	0x3b8856d7	0.0041607427
39	0x3b7bfcb2	0.0038450179
40	0x3bd309c3	0.0064403727
41	0x3b1a7509	0.0023568294
42	0x3c01ce10	0.007922664
43	0x3c3a132b	0.011357109
44	0x3b040d41	0.0020149502
45	0x3b65358f	0.003497455
46	0x3bb70a50	0.005585946
47	0x3bd866f7	0.0066040712
48	0x3c394e7c	0.011310216
49	0x3b0a062b	0.0021060805
50	0x3c1c07c9	0.0095233405
51	0x3b4a6d2d	0.0030887828
52	0x3b6612b7	0.003510637
53	0x3b4dd744	0.0031408826
54	0x3adfd60e	0.0017077343
55	0x3b4aa11b	0.003091878
56	0x3b9489f5	0.0045330473
57	0x3baa3ce4	0.005195247
58	0x3bcb9dd0	0.006213881
59	0x3b057337	0.0020362863
60	0x3b54c2fd	0.0032464855
61	0x3ba4bf18	0.005027663
62	0x3bc4e6d2	0.0060089612
63	0x3c4c5774	0.012472022

regression_head.weight f4 [1, 64]
0	0xbd2f5988	-0.042809993
1	0xbd274fec	-0.040847704
2	0xbd10c8b8	-0.03534767
3	0x3d47ec32	0.048809238
4	0x3d40cddc	0.047071323
5	0xbd1009a0	-0.03516543
6	0x3d442ffd	0.047897328
7	0xbd008d7e	-0.031384937
8	0xbd21d814	-0.03951271
9	0xbd1e8592	-0.0387016
10	0xbd0615c8	-0.032735616
11	0x3d3eaf35	0.04655381
12	0xbd1b5906	-0.037926696
13	0x3d3e01fb	0.046388607
14	0xbd1cdf0e	-0.03829866
15	0xbd1ccaa2	-0.038279183
16	0xbd15fb19	-0.03661642
17	0xbd1926c9	-0.037390504
18	0x3cfc36ed	0.03078791
19	0x3d6a33bb	0.05717824
20	0xbd335d03	-0.043789875
21	0x3d57df53	0.052703213
22	0xbd289cdf	-0.04116523
23	0x3d080d8c	0.033216044
24	0xbcd7c73b	-0.026340118
25	0x3d67796b	0.056512278
26	0x3d58df20	0.052947164
27	0xbd00ac62	-0.031414397
28	0x3d5935a5	0.053029675
29	0xbd0d0b5b	-0.034434658
30	0x3d53b95c	0.051690444
31	0x3d2671f2	0.04063601
32	0xbd1a5a0f	-0.037683543
33	0xbd3215ba	-0.04347775
34	0x3d752491	0.059849326
35	0xbd1b15d3	-0.03786261
36	0x3d9d4647	0.0767942
37	0xbd29692c	-0.041360065
38	0xbd23fc24	-0.040035382
39	0xbd14fe47	-0.03637531
40	0xbd2ad2ef	-0.04170507
41	0xbceca5de	-0.028887685
42	0x3d5161cf	0.05111867
43	0x3d81ae7f	0.063321106
44	0xbd3185c1	-0.04334045
45	0xbcdf3dc1	-0.027251126
46	0xbd1ce93d	-0.03830837
47	0xbd12a240	-0.035799265
48	0x3d6a4489	0.057194266
49	0x3d11491c	0.035470113
50	0x3d6bd2f8	0.057574242
51	0xbd01a58d	-0.031652022
52	0xbcf38ca0	-0.029730141
53	0x3d5d80f6	0.054078065
54	0xbce2fcf7	-0.027708514
55	0x3d2e724f	0.042589482
56	0xbd1404d7	-0.036137428
57	0x3d20db0b	0.039271396
58	0xbd12a4d3	-0.03580172
59	0x3d018d2e	0.03162878
60	0xbd013803	-0.031547558
61	0xbd150c72	-0.036388822
62	0x3d5379c4	0.051629797
63	0x3d6a3dfe	0.057188027
