outputs/checkpoints/clinical_model_v1.pth (torch, 655519 bytes, 19 tensors)

embedding_extractor.0.weight f4 [256, 463]
00000000: 4551 13bd 8d26 ec3c dbee debb 17df d13b
00000010: 61d6 8bbc 01e5 b63c 20ec ae3c 9286 80bc
00000020: b0fe 5fbc f2ed 6b3c 8183 20bc d676 e9bc
00000030: 0160 413c 0f61 a7bc 7829 8fbc 7e4c 7b3c
00000040: 6301 0080 7923 413c fff0 71ba 9e12 96bc
00000050: 2786 13bc 1d90 4e3c e7c0 313c 8e44 87bb
00000060: ae63 9cb9 d8e6 96bc 6289 e8bc 7cc6 53bc
00000070: 9bde 9f3b f37d 98bb 0e7e 2b3c 404a 0ebc
00000080: 778f ee3a 8bd3 9bb8 5674 a0bb 43c4 4a3c
00000090: 826a b6bc 021f 8bbb 7e24 8a3b e978 6a3c
000000a0: d6a0 963b e59f 93bb 6760 8cbb 0678 2f3a
000000b0: c8f4 7bbb 0a6b 1b3c a74e 9f3a 9e70 ba3c
000000c0: 1fc6 d13c fc66 9c3b 473d 2c3c e867 a83c
000000d0: 7a1c eb3a 0e00 e33c b974 723b 8e14 17bc
000000e0: 7709 9ebb 27ca 46bb 5b7f 2bbb 4699 133c
000000f0: 8c72 21bc e150 c1bc c48f 8cba 2cee 1cbc
00000100: ef30 9bbc 3516 92bb 6415 34bc 9cea 9f3a
00000110: bf4b 643b 58b9 013b c3eb 943c 9816 0f3c
00000120: 6449 57bc ec18 03bc 54a5 b53b 1882 f4bc
00000130: dd80 aebb 8d85 07bc 4481 13bc 5dda d6bb
00000140: 26fe 87bc 7a2d 99bb 954e 563c 2f1f c03b
00000150: 2f15 3b3b 6b25 a9ba ea2d 37ba cd6f 323b
00000160: 5fd1 31bc 1bab bebb 59cf 533b ed71 77bb
00000170: 65dc b7bc 994c f93b a8e0 553a f998 083c
00000180: 053d f9ba 2521 fa39 9050 473a 9613 dc3c
00000190: 3ab3 c4bb c6f1 fdba 99d6 8d3a db6a 7ebc
000001a0: 6101 0080 6c3d 743c 083c 0ebc d796 ce3b
000001b0: 6a92 763b f57f 38bc f323 9dbc fa65 0fbc
000001c0: 8f51 8c3c f04d 72bb 4b71 553c e0b0 bb3a
000001d0: 2b67 2b3b 6d01 0000 6da6 063b 7fc6 e6bc
000001e0: 0001 75ba 90e3 e0bc 13ea a13b e315 aeba
000001f0: bf84 c83c 8b49 c83a 6590 e03a b3a1 1dbd
00000200: 89b5 b0bc bcc5 0bbc 76c0 8cbb d7e5 073b
00000210: 396c 45bb b60d 3b3b ff59 9dbb 746d 2c3c
00000220: 21d1 783b 299f 523a 277b 8dbb abd0 b9bc
00000230: 0e28 cebb 9a46 21bb 4095 813a ba60 a7bb
00000240: 23ad 8c3c 434e bdbc 2f24 a1bc 3962 87bc
00000250: 60fa 683c f9a1 f33b 1e25 6b3c 80fa 303c
00000260: 51e0 743b f5ba 0f3c 9427 183c 0620 1bbb
00000270: 0f18 33bc 2822 d13c c597 aebc 7deb b7bc
00000280: eac4 e23c 7b78 9e3c bcb2 cf3a 1f25 eb3b
00000290: 2159 f23a 9efc a33c e5af 703c 532f f7bb
000002a0: 274c f23b a722 1cbc 92a1 aa3b 4523 a23c
000002b0: 8725 483c 58fc 32bb e34a 10b9 9092 2dbb
000002c0: 5179 c5ba bfd0 913a 9586 3eb9 445f d0b6
000002d0: b1b8 1d3a 9870 a53a a8f1 85bb 837a 263a
000002e0: a3ea 083b f364 523c ac2c e0ba 568d 12bb
000002f0: 8e67 8f3c f00b 663b aaa0 8b3c 0760 333c
00000300: 1fc7 343c a0b7 a03b 7eba 9a3c a5f0 fb3c
00000310: 0656 cc3b 66c5 373c ca61 8a3a e942 2d3c
00000320: 989f 29bc a49f aeba f720 12bb bcd0 b6b8
00000330: 4fa3 3e3a 82c8 a53b 3fee 983b 392f 0b3b
00000340: 67c7 d83a bd9f 86bc 299d 27bc 2a8a b7ba
00000350: b153 1d3b 0e19 3c39 afcc 793a 7d1a e3bb
00000360: 12de 3b3c f7ce 98bc 11b4 703a 8a37 efba
00000370: 9343 23bc 6013 403a 5a9d 1739 43f0 8a3b
00000380: ffe4 123b 2f66 57bb e6e6 f93a d9a2 423c
00000390: 3bd8 623a b38a ac3b c14b acbc 6e3b b03b
000003a0: af56 bb3c f4df da3a 172f a93c 6f84 b13c
000003b0: fc84 8fb9 6201 0000 da72 5cbb 3cc6 c43a
000003c0: 58b7 d23c 52da 87b9 9e8f bfba 4cea 0ab9
000003d0: 6040 4bba cf64 11bb 32c1 7939 7ff0 843c
000003e0: bc39 a13b df12 11b8 6ad1 c3b8 64fb 80b9
000003f0: 9d16 a7bb 116a 8239 489e 8dbb 75c1 713a
-0.035966177 0.028826976 -0.006803376 0.006404768 -0.017069997 0.022325994 0.021352828 -0.015689168
-0.013671562 0.014399992 -0.009796978 -0.028499048 0.011802674 -0.020432023 -0.017475829 0.015338061
-4.97e-43 0.0117882425 -0.00092293316 -0.018319424 -0.009004152 0.0126076015 0.010849214 -0.0041280454
-0.00029828906 -0.018420622 -0.028385822 -0.01292574 0.0048788316 -0.004653686 0.0104670655 -0.008684695
0.0018200715 -7.430379e-05 -0.004896681 0.012375894 -0.022267584 -0.00424564 0.004215776 0.014311054
0.00459681 -0.004505145 -0.004283953 0.0006693605 -0.0038445462 0.009485969 0.0012154178 0.022758778
0.025607167 0.004773019 0.0105126565 0.020557359 0.0017937564 0.027709987 0.0036995842 -0.009221209
-0.0048229056 -0.0030332895 -0.002616844 0.009008711 -0.00985397 -0.023598136 -0.0010723998 -0.009578269
-0.018944232 -0.0044582137 -0.010991428 0.0012200656 0.0034835187 0.0019794311 0.018178826 0.008733414
-0.013140056 -0.008001547 0.0055433903 -0.02984719 -0.0053254203 -0.008271587 -0.009002987 -0.0065567927
-0.01660068 -0.0046746107 0.013080259 0.0058630924 0.0028546562 -0.0012904828 -0.0006987738 0.0027227283
-0.010853141 -0.005818737 0.0032319634 -0.0037757114 -0.02244396 0.007608008 0.00081587816 0.008337253
-0.0019015378 0.0004770841 0.00076032523 0.026864808 -0.006002811 -0.0019374422 0.0010821401 -0.015528406
-4.95e-43 0.014907222 -0.008681305 0.0063046026 0.003762389 -0.011260976 -0.019182181 -0.00875234
0.017128734 -0.0036972724 0.013027499 0.0014319681 0.0026154022 5.11e-43 0.0020545975 -0.028170822
-0.00093461573 -0.02745226 0.004941234 -0.0013281669 0.02447736 0.0015280707 0.0017132877 -0.038484287
-0.021570938 -0.00853103 -0.004295404 0.002073636 -0.003012432 0.0028542108 -0.004801988 0.0105241425
0.0037966447 0.0008034581 -0.0043176594 -0.022682508 -0.006291396 -0.0024608732 0.0009886399 -0.0051079663
0.017172402 -0.023108607 -0.019670574 -0.016526328 0.01421985 0.00743508 0.014352111 0.010801911
0.0037365148 0.008772601 0.00928678 -0.002367021 -0.010931029 0.025528982 -0.021312604 -0.022451157
0.027681787 0.019344559 0.0015846114 0.007176056 0.0018489697 0.020017918 0.014690374 -0.0075434833
0.007394332 -0.009529746 0.005207249 0.019792208 0.0122159785 -0.0027311053 -0.00013760808 -0.0026485063
-0.0015066062 0.0011124833 -0.00018169948 -6.2099734e-06 0.0006016596 0.0012622057 -0.0040876456 0.0006350653
0.0020891808 0.012841451 -0.0017103157 -0.0022362075 0.017505433 0.003510233 0.017044384 0.010948188
0.011033802 0.0049047023 0.018887755 0.030754397 0.0062358407 0.011216497 0.0010557708 0.010575035
-0.0103529915 -0.0013322723 -0.002229748 -8.717316e-05 0.00072722597 0.005059303 0.004667073 0.0021237864
0.0016538919 -0.016433591 -0.010230341 -0.0014002968 0.0024006183 0.00017938411 0.00095290964 -0.006930648
0.01146652 -0.018653376 0.00091821054 -0.0018250805 -0.009964841 0.0007327106 0.000144591 0.004240067
0.0022414324 -0.0032867303 0.0019066005 0.011879646 0.00086534367 0.0052655577 -0.021032216 0.0053781783
0.022868482 0.0016698823 0.020652337 0.021669595 -0.00027374167 4.96e-43 -0.0033637793 0.0015012692
0.02572219 -0.00025911868 -0.0014614945 -0.00013247988 -0.0007753428 -0.002218533 0.00023818461 0.016227959
0.0049202126 -3.458827e-05 -9.337331e-05 -0.00024601363 -0.0050991313 0.00024874558 -0.004321847 0.0009222248

embedding_extractor.0.bias f4 [256]
00000000: 4b38 3234 86ee 1934 4057 97b3 dec2 f932
00000010: 960b a134 fb70 a533 13a3 c931 22e1 9933
00000020: 6aff bcb2 9cd3 8bb2 7752 e6b1 c6fb 48b2
00000030: 95ab c333 3fa6 dcb2 211d 3933 41f0 b7b2
00000040: c318 b433 3680 0fb0 1d4c 3fb3 c944 0b33
00000050: 5574 19b3 a14c 9532 0b45 0233 4ff5 33b2
00000060: a3ea 2233 7336 0a30 5723 21b4 1151 9634
00000070: 64e3 a5b2 9472 e432 0386 0a33 6d67 0134
00000080: 90c4 9c33 d7a5 1db3 b28d bc32 c422 21b3
00000090: 3d7e 00b3 a74a 0bb2 0e0d 4d33 3591 4b32
000000a0: c580 f033 55d9 eab3 5f13 a033 94af 1f33
000000b0: 4f90 b033 b2b2 b2b1 23f8 f433 fbee b633
000000c0: 3dd6 8fb4 d0c6 ac32 e96a ccb2 8eff c633
000000d0: 2768 0eb3 b873 6a33 b97b bcb3 f48f 14b4
000000e0: 9e4b c632 d021 ffb2 b71c edb1 b70b 3d34
000000f0: 8ad2 40b2 446a 19b4 c4a6 9731 9d18 af33
00000100: b8ca 01b2 01d1 b1b1 5e0b 23b4 9af5 7734
00000110: bc1a 51b3 abee 21b1 6411 9d33 d37e 6ab4
00000120: cd8c 76b2 4b52 1fb3 658e bdb3 8840 66b3
00000130: 034b cab3 0623 08b1 2069 8d30 16c6 b333
00000140: 6b5c 8e34 2836 ca33 8e4e 66b3 da6a f533
00000150: e567 6333 42cd 9b33 b514 d3b6 0ef4 b9b2
00000160: 0bef 2a33 463d 5e34 dd6e 9132 419b 8433
00000170: 1886 cbb2 b546 2fb4 75db 2e32 7157 6933
00000180: 3662 0333 5410 feb3 f133 ef33 288e 89b4
00000190: be53 7834 9c38 85b3 da20 c332 7366 eab4
000001a0: fc08 57b3 e2cd 9d33 c75c 8db3 14f8 9132
000001b0: e36d 8133 7f63 1e32 1656 6ab3 d815 a5b4
000001c0: 00c4 de33 7f6b 32b3 ec38 4931 e324 08b3
000001d0: 76c0 01b3 0053 3e32 7569 43b5 522f c632
000001e0: 2669 7c35 ebe2 5735 35ff 9833 0011 d9b1
000001f0: c431 f4b1 ca81 6132 1d00 e232 f8be 26b3
00000200: a6f5 5933 f727 0cb3 8881 2132 9237 d7b3
00000210: c7b7 5833 2e24 8eb1 83af 3332 bd58 f233
00000220: a14d 32b3 0d38 39b3 9fdd beb3 7270 8db2
00000230: be9b 2cb4 4eb1 64b5 d30e b7b0 a4bf d234
00000240: 6a9e 29b3 9cb5 81b2 2e4e 2cb0 1f8a ffb1
00000250: 95f2 77b3 49ea 04b5 99fd 11b3 1a5c 61b1
00000260: cf39 b032 3e63 d9b2 6116 87b2 05a1 4f34
00000270: 9533 ad32 bdff 06b5 5ded 5033 f3e1 3eb2
00000280: 1a1d b4b2 6784 a033 2087 93b3 709c 02b3
00000290: 59bc 5433 95e2 09b1 411a d6b3 8e2e 8bb3
000002a0: ab34 1ab3 2013 0b33 0161 ca34 3bbf 8733
000002b0: ff35 9db2 6662 3a32 bb2d 8bb3 60c4 5a33
000002c0: ab66 2433 957b 27b2 5aa8 1034 fa9c 43b3
000002d0: 3eba 3933 5959 ea33 d047 06b0 9b86 c5b2
000002e0: 464b 39b3 0f0c b833 c1f9 52b3 1f21 b733
000002f0: 8815 2bb2 bc53 2333 03bd 3833 9666 d9b3
00000300: ddb4 15b1 c893 50b5 ed3e beb2 cc11 d4b3
00000310: 3aef 0fb4 7d36 d3b2 7095 ebb1 4b55 8a33
00000320: 1750 06b3 2338 ba33 ffd6 fa32 57b4 4f33
00000330: 5e0b 26b4 6593 24b3 275c cdb1 14d6 56b2
00000340: ad49 15b2 34dc a334 dd32 9232 dbfd 0eb3
00000350: e1e6 68b2 d60f 2532 97c3 2634 67c3 b533
00000360: 8405 3b32 4bc5 d7b0 cd5f e532 7225 a132
00000370: 204f 0133 619b 3e33 2bab 9232 995c 0833
00000380: b2a6 75b3 4db0 a633 8c7d 8732 611c 39b2
00000390: 1794 80b3 c056 03b3 d899 f2b1 6c5d 19b5
000003a0: 5561 ae32 b362 a0b2 99f4 d4b1 8940 d7b2
000003b0: 92db 7932 4a5b 5333 24bc 9b34 6ad0 a5b2
000003c0: 651a 0eb3 9016 31b2 d8a7 1732 f15a 0734
000003d0: 0e2b 05b3 d924 dd32 44f6 c932 c5cb d6b2
000003e0: 8ff7 4d33 cddb d232 c8e3 e7b3 bf97 9d32
000003f0: 52c0 b9b0 fa58 99b2 e5df 3f33 1b22 9c33
1.6598021e-07 1.433601e-07 -7.047356e-08 2.907603e-08 2.9997017e-07 7.703962e-08 5.8684093e-09 7.165569e-08
-2.200223e-08 -1.6277959e-08 -6.703256e-09 -1.1698779e-08 9.111606e-08 -2.568697e-08 4.310016e-08 -2.1413259e-08
8.386407e-08 -5.2205296e-10 -4.4539878e-08 3.242602e-08 -3.5728892e-08 1.738073e-08 3.0330778e-08 -1.0474948e-08
3.7931965e-08 5.0281485e-10 -1.500715e-07 2.799866e-07 -1.9311933e-08 2.6594797e-08 3.225251e-08 1.2051687e-07
7.3000706e-08 -3.670524e-08 2.1950516e-08 -3.7517353e-08 -2.9917135e-08 -8.107839e-09 4.7742155e-08 1.1849171e-08
1.1199294e-07 -1.09360066e-07 7.454104e-08 3.717976e-08 8.221888e-08 -5.200797e-09 1.1407271e-07 8.518506e-08
-2.6791704e-07 2.0113845e-08 -2.3797343e-08 9.2665786e-08 -3.3156677e-08 5.4587616e-08 -8.776937e-08 -1.3835944e-07
2.308462e-08 -2.9701283e-08 -6.9008723e-09 1.7606258e-07 -1.1223742e-08 -1.4287895e-07 4.4136375e-09 8.15355e-08
-7.554881e-09 -5.175139e-09 -1.5184693e-07 2.3093017e-07 -4.868592e-08 -2.356425e-09 7.3140455e-08 -2.1839087e-07
-1.4351099e-08 -3.7094917e-08 -8.8269e-08 -5.360974e-08 -9.4200026e-08 -1.9810513e-09 1.0288979e-09 8.371369e-08
2.6516804e-07 9.416209e-08 -5.3622493e-08 1.1428138e-07 5.2947048e-08 7.255086e-08 -6.2907006e-06 -2.1647818e-08
3.9798618e-08 2.0697652e-07 1.6930636e-08 6.1749695e-08 -2.3693289e-08 -1.6323868e-07 1.0178032e-08 5.4329067e-08
3.0590137e-08 -1.1830767e-07 1.1138753e-07 -2.562167e-07 2.3127265e-07 -6.203592e-08 2.2715927e-08 -4.3660438e-07
-5.006676e-08 7.348332e-08 -6.5827e-08 1.6993035e-08 6.027019e-08 9.219433e-09 -5.4560665e-08 -3.0749538e-07
1.0373333e-07 -4.154162e-08 2.9281706e-09 -3.1698516e-08 -3.0210195e-08 1.1078328e-08 -7.279662e-07 2.3071753e-08
9.4030327e-07 8.042395e-07 7.1244735e-08 -6.317464e-09 -7.1069923e-09 1.3126234e-08 2.6309914e-08 -3.8823572e-08
5.0747666e-08 -3.2632638e-08 9.400885e-09 -1.0021826e-07 5.0458564e-08 -4.136857e-09 1.0459078e-08 1.12851446e-07
-4.1514458e-08 -4.3124647e-08 -8.887877e-08 -1.6465695e-08 -1.6075407e-07 -8.519463e-07 -1.3319216e-09 3.9254985e-07
-3.9492456e-08 -1.5100163e-08 -6.2684336e-10 -7.4371793e-09 -5.7729796e-08 -4.951476e-07 -3.399109e-08 -3.2794163e-09
2.0515385e-08 -2.5307255e-08 -1.5726245e-08 1.9336956e-07 2.0163307e-08 -5.029104e-07 4.8644655e-08 -1.11108305e-08
-2.0967992e-08 7.4746644e-08 -6.8698e-08 -3.0410263e-08 4.9531398e-08 -2.006492e-09 -9.969927e-08 -6.48116e-08
-3.590382e-08 3.2380854e-08 3.7696012e-07 6.321212e-08 -1.830176e-08 1.0848998e-08 -6.48101e-08 5.0935682e-08
3.82776e-08 -9.748779e-09 1.3472291e-07 -4.5544745e-08 4.3243055e-08 1.09127264e-07 -4.885097e-10 -2.299503e-08
-4.314213e-08 8.570361e-08 -4.9121585e-08 8.527626e-08 -9.958406e-09 3.802755e-08 4.3012744e-08 -1.012351e-07
-2.1785163e-09 -7.770109e-07 -2.2147526e-08 -9.8752565e-08 -1.3404943e-07 -2.4588411e-08 -6.8563892e-09 6.4416405e-08
-3.1272148e-08 8.671511e-08 2.92016e-08 4.835996e-08 -1.546409e-07 -3.831828e-08 -5.9767618e-09 -1.2505115e-08
-8.689693e-09 3.0521335e-07 1.7019767e-08 -3.329283e-08 -1.3556673e-08 9.607865e-09 1.553111e-07 8.464013e-08
1.0886087e-08 -1.5699383e-09 2.6702674e-08 1.8759895e-08 3.0107117e-08 4.437914e-08 1.7074475e-08 3.1749185e-08
-5.7195116e-08 7.762046e-08 1.577316e-08 -1.077487e-08 -5.987402e-08 -3.0579713e-08 -7.060617e-09 -5.713289e-07
2.0300527e-08 -1.8671335e-08 -6.1978196e-09 -2.5058641e-08 1.4543632e-08 4.9210293e-08 2.900789e-07 -1.9303304e-08
-3.3085957e-08 -1.0307886e-08 8.82752e-09 1.2605939e-07 -3.1005634e-08 2.5744542e-08 2.3511468e-08 -2.5005543e-08
4.7955435e-08 2.4547171e-08 -1.0798209e-07 1.8346212e-08 -1.3515182e-09 -1.7852006e-08 4.4674284e-08 7.27052e-08

embedding_extractor.1.weight f4 [256]
00000000: d494 253f a6b4 243f 8390 253f 7f42 233f
00000010: 1223 263f 7b37 243f f924 243f 6787 233f
00000020: a0f3 233f 26e5 233f 548e 253f 73de 223f
00000030: 0118 253f 47a9 223f 2db8 233f a433 243f
00000040: 2c63 243f 797e 233f 1006 243f bb80 233f
00000050: 7629 233f 90df 243f 793d 233f c18c 223f
00000060: 4ee9 243f 053b 243f 5a9b 263f c61f 243f
00000070: 4ba0 233f b8a1 243f b3c3 243f 46f8 223f
00000080: a9d5 253f ceab 233f 4c36 243f 882f 263f
00000090: 7a6b 253f bc37 233f 944c 233f 41cf 243f
000000a0: ebd3 273f 7583 253f 107e 243f 659b 233f
000000b0: 965f 233f bdc7 233f 6f04 273f 410e 263f
000000c0: 5a3e 243f 5f4d 243f ca48 233f 749e 263f
000000d0: f407 243f d4e5 233f 7e43 253f 778d 253f
000000e0: 1a93 243f a325 233f c007 233f 0cd4 233f
000000f0: 3dda 233f 83bb 243f f2db 243f 0d37 243f
00000100: 8ff9 233f 40f2 253f 31d5 253f 21f6 233f
00000110: 3923 233f 2783 233f ab28 243f c620 263f
00000120: 11b3 253f d42b 243f 535c 243f a3e9 243f
00000130: 685e 233f 56b8 243f 7f04 243f 7209 243f
00000140: 0d82 233f 7635 263f 4570 243f 6c13 253f
00000150: 95b0 243f 568f 233f a7d9 223f 7555 243f
00000160: 9fcc 243f 6ff8 243f dec5 253f 5159 243f
00000170: 111f 243f aa0e 243f b955 233f a753 243f
00000180: c6d7 243f de33 243f a76d 243f 245a 253f
00000190: e4d6 243f 5947 253f 36fd 243f d97c 243f
000001a0: ab92 233f dea1 233f bdeb 263f f0dd 233f
000001b0: 75da 243f ba1c 233f fcda 253f 1805 253f
000001c0: 787b 243f 7fe4 263f 8c29 243f 60c0 223f
000001d0: 8add 243f 23fc 223f c897 243f 6c35 253f
000001e0: ee8c 253f d874 233f cb0f 243f 621f 253f
000001f0: d24f 243f 637b 243f 3039 233f 6865 243f
00000200: e562 243f 305b 243f e4bd 223f 3254 243f
00000210: d393 233f bf54 233f 8edf 233f a5c2 223f
00000220: bc60 243f 5f77 253f c422 243f 1e1d 233f
00000230: 2079 233f e776 233f 5acb 233f e19c 253f
00000240: 5206 253f e3db 243f 8dfe 223f 1565 233f
00000250: 9003 253f 63a8 233f c821 243f c8ac 233f
00000260: 1a58 233f c3ef 243f 4563 243f 2578 243f
00000270: 048f 233f acb6 243f 1770 253f ca67 233f
00000280: cee0 223f cb08 243f 0186 243f 0b5c 233f
00000290: be4d 243f 616a 243f 9b4f 243f 9310 253f
000002a0: 95d9 233f 22d1 233f dacb 283f 835e 233f
000002b0: 36eb 223f fbd0 263f b8d4 233f 2893 243f
000002c0: 3382 243f afa0 243f 7eaf 243f 829b 233f
000002d0: eab1 243f d6f8 253f aa29 243f 9d7c 233f
000002e0: ca3c 253f b57c 253f 1e91 223f 1453 253f
000002f0: 9355 233f a198 263f 4b7f 253f 3fdf 243f
00000300: 1b33 253f c26d 233f fdac 233f e661 263f
00000310: f4ce 263f 40a9 243f d6d2 293f 9743 243f
00000320: dc2f 263f 7c09 243f 3993 243f cded 253f
00000330: 4d4b 243f d977 243f 4830 233f 2f68 233f
00000340: d7a6 283f 75b3 243f 5070 243f 91eb 233f
00000350: 0361 263f b1a4 243f 7559 243f da32 243f
00000360: 69ed 223f 2335 253f 0a68 243f 42e8 233f
00000370: c281 243f 7fca 243f 800d 243f e6d7 233f
00000380: bfe7 253f 238d 243f 09a6 243f 5aaf 233f
00000390: da43 253f 427c 243f db43 243f 31e0 243f
000003a0: 0843 243f 1a31 243f 6227 243f f11c 233f
000003b0: 2a49 243f 2afa 233f 5e34 233f 768d 253f
000003c0: 9036 243f 833e 253f 722d 243f 560b 253f
000003d0: c890 233f a87f 253f f338 243f aeaf 243f
000003e0: 1bb0 233f 5d3f 263f c02f 233f 9af2 233f
000003f0: 0bf9 233f 1023 233f 2ba2 243f a4f3 243f
0.6468022 0.6433815 0.6467363 0.6377334 0.64897263 0.64147156 0.64118916 0.6387848
0.6404362 0.6402153 0.646703 0.6362068 0.6448975 0.63539547 0.63952905 0.641413
0.64213824 0.63864857 0.6407175 0.638683 0.6373514 0.6440363 0.63765675 0.63496023
0.64418495 0.64152557 0.650808 0.6411098 0.6391646 0.64309263 0.64361113 0.63660085
0.64779145 0.6393403 0.6414535 0.64916277 0.6461712 0.6375692 0.63788724 0.64378744
0.65557736 0.6465371 0.64254856 0.6390899 0.6381773 0.6397665 0.6524114 0.648655
0.6415764 0.6418056 0.6378294 0.6508553 0.64074636 0.64022565 0.6455611 0.64668983
0.6428696 0.63729304 0.636837 0.6399543 0.6400488 0.6434862 0.6439811 0.641465
0.6405267 0.6482277 0.6477843 0.6404744 0.6372562 0.63872 0.64124554 0.6489376
0.6472636 0.64129376 0.64203376 0.64419 0.6381593 0.64343774 0.6406936 0.6407691
0.63870317 0.64925325 0.6423381 0.6448276 0.6433194 0.6389059 0.6361336 0.641929
0.64374727 0.6444158 0.64755046 0.64198786 0.64109904 0.64084876 0.6380268 0.64190143
0.64391744 0.64141643 0.64229816 0.6459067 0.643904 0.6456199 0.6444887 0.64253
0.6389567 0.63918865 0.6520346 0.64010525 0.6439584 0.6371571 0.6478727 0.644609
0.642509 0.6519241 0.64125896 0.6357479 0.6440054 0.6366598 0.642941 0.6453464
0.64668167 0.63850164 0.640866 0.6450101 0.64184296 0.64250773 0.63759136 0.64217234
0.642134 0.6420164 0.63571 0.6419097 0.63897437 0.6380119 0.6401299 0.63578254
0.64210105 0.6463527 0.6411555 0.63716304 0.638567 0.63853306 0.63982165 0.64692503
0.6446277 0.6439802 0.63669664 0.63826114 0.6445856 0.6392881 0.64114046 0.6393552
0.6380631 0.6442835 0.64213973 0.64245826 0.638901 0.64341235 0.6462416 0.63830245
0.63624275 0.64075917 0.64266974 0.6381232 0.64181125 0.6422482 0.6418397 0.64478415
0.6400388 0.63990986 0.6593605 0.6381609 0.63640153 0.6516263 0.6399646 0.6428704
0.6426117 0.64307684 0.6433028 0.6390916 0.64333975 0.6483282 0.64126074 0.6386202
0.6454588 0.6464341 0.6350268 0.6457989 0.6380245 0.65076643 0.6464736 0.64403147
0.64531106 0.6383935 0.63935834 0.6499313 0.65159535 0.64320755 0.66337335 0.64165634
0.6491678 0.6407697 0.64287144 0.6481598 0.641774 0.64245373 0.63745546 0.63830847
0.6587958 0.6433633 0.64233875 0.6403132 0.6499178 0.643138 0.64199 0.64140093
0.6364351 0.64534205 0.6422125 0.6402627 0.64260495 0.64371485 0.640831 0.6400131
0.6480674 0.6427786 0.6431585 0.6393944 0.6455666 0.642521 0.6416604 0.6440459
0.6416478 0.64137423 0.64122593 0.63716036 0.6417414 0.64053595 0.6375178 0.6466898
0.64145756 0.6454851 0.64131844 0.6447042 0.63892794 0.6464791 0.641494 0.64330566
0.6394059 0.64940435 0.63744736 0.64042056 0.64051884 0.63725376 0.6430995 0.64434266

embedding_extractor.1.bias f4 [256]
00000000: 9f85 d4bb e942 8abb 3495 3ebb d686 1dbc
00000010: 7a56 a3bb c4c6 5e3a c048 30bb 5d17 d8bb
00000020: 57c8 99ba 947b 66bb 3aef 8bbb 6829 cbbb
00000030: ecd0 a83a 6cc3 73bb 6adf b0bb 6b7a 94bb
00000040: 04a2 5cbb 2b47 94bb 1a74 0abc 81fb fbb9
00000050: c4de 56bb deb7 a03a 300b 99bb 80c9 393b
00000060: 21b8 8dbb 70ba 853b 633e 8cbc 3ef6 a3bb
00000070: c6e6 3bbb 4301 cfbb f8df 83bc bf5c 33bb
00000080: 80da 19bc 09d8 4cbb bdb9 c13a d7b7 38bb
00000090: fd60 5fbc 7482 ecbb 1ac8 1a3b d274 dfbb
000000a0: b6e9 27bb cb5a 87bb e194 e7bb 3465 8aba
000000b0: 24b8 e2ba ca81 86bb dd47 12bc 115d 1bbc
000000c0: 14c1 4abb b29d c9b9 dd9c bbbb 5cc0 b9bb
000000d0: 02a0 e3bb 0b77 e7bb 1b0a 603a 8099 ddbb
000000e0: 831a 21ba c7b0 91bb d152 04bb b9e6 16bc
000000f0: 5b7f cabb 4e18 b3bb f1ef 0dbc 96fa 0abb
00000100: 46c1 6ebb 71d8 89bc deac 0cbc b493 f73a
00000110: 903a f2bb efc3 21bb 4c72 7dba d5ca 18bc
00000120: 8522 90bb 6a6d 92ba 4860 d4bb 8946 9439
00000130: bca9 b9bb 5f99 35bb b068 f938 2149 c5bb
00000140: 1b13 1fbc 72f3 4cbc 53f6 65bb 9151 30bb
00000150: 1d22 3ebc eb82 0c3b 3f3a c7b9 ccac b6bb
00000160: daf3 06bb 22fa 81bb 729e 19bc 017b a0bb
00000170: 7dce 3abb 5200 27bc 706b 28bb 528f 3f3b
00000180: dfa5 07bc c07a 8cbb 1183 41bc 26c9 56bb
00000190: 5c40 39bc 1839 dbbb 9af0 d3bb ff2e a6ba
000001a0: 4497 daba 9ae6 bf3a b8b0 c9bc bbe5 3ebb
000001b0: c075 b93a d99c 73ba 5c95 cbbb 131f 5eb9
000001c0: fd88 81bb 45db 7dbc bee4 8fbb 05cf 27bb
000001d0: a33c 30bb 03d1 0e3b 660c eebb f0a8 07bc
000001e0: 3ebd 1abc c891 343a 4bf2 92bb 3585 7dbb
000001f0: 4a2b b0bb 40b3 d1bb de90 40bb dc94 14ba
00000200: ef9a 03bc 77ed f2bb bd69 c1bb d155 27bb
00000210: c273 d0ba 12a2 89bb 2f78 cfbb a02b 48bb
00000220: 16ee 73bb 8e2d 3abc 462a ccbb 9a5f 27bb
00000230: 4b54 1fbc 7adf debb 811c 07bc a50f deba
00000240: 0269 f2bb 1288 22bb ed1e a0ba 2eab 2fbb
00000250: fdb6 a5bb 9600 93bb 108d c7bb ab14 36bc
00000260: 8a73 fcbb dace 61bc 404f e7ba 594d 20bb
00000270: 8c71 0ebc 13f7 cabb c036 26bc fee6 86ba
00000280: 7108 71bb 6a30 cfbb b8ec cbba bafe 6dbb
00000290: 52ee eebb 3223 abbb a68a 34bb 9128 0cbb
000002a0: 43fb 9aba 3509 a5ba d5c1 51bc f1a5 bcba
000002b0: c7a8 cebb 18db 2fbc 3976 6cbb 3673 cfb9
000002c0: 4f47 afbb 3550 32ba 2ed0 59ba 6d51 d7ba
000002d0: 5285 a6bb 9196 c3bb d8ec 193b a39e 8b39
000002e0: 4d68 f6bb 1966 81bb 2cc5 a53a da36 ccbb
000002f0: 5c3a e9bb 9538 1cbc ec9c 47bc 2486 c8bb
00000300: 7e80 4dbb 77fc baba e6ca f9bb d447 3abc
00000310: 9a5a c5bb 7a7b 37ba 6a2f eebb ff1c 78b9
00000320: caa0 f1bb 538e 98ba 5312 1bbc ba0e b6ba
00000330: 82b9 123b 7dc6 83bb b2d7 d4bb 8747 1dbc
00000340: 9241 9fbb 412b 2fbb 3b39 8fbb 7046 24bb
00000350: f94d 3cbb 8071 b0bb b50c 39bc a2ee 91bb
00000360: 3e2d 06bc 82b7 1dbc b727 d2bb e33c afbb
00000370: 35de a9bb 0eb2 19bb 60af 653a 4d02 d9bb
00000380: ee1c cbbb b642 c1ba 37c0 0bbc 2538 2dbc
00000390: 7895 07bc d209 b4ba e423 e4bb 916e 1dbc
000003a0: 4233 26bc f865 19ba 8e39 9fbb 0338 f4bb
000003b0: 4ab4 49bc 241e 933a 2e68 47bb a1d3 ccbb
000003c0: f93e afbb df7d 86bb 8460 bcba 3efd 27bb
000003d0: 9dd7 9fbb 17d9 ba3a b4f5 a0ba ceca 1fbb
000003e0: f21f 29bc 3e67 41bc 6f9a f4bb 9724 8ebb
000003f0: 43d6 66bb e448 1b3b d622 32bb 7e41 40bc
-0.0064856554 -0.004219402 -0.0029080631 -0.009614667 -0.004984674 0.00084982463 -0.002689883 -0.006594582
-0.001173268 -0.0035168873 -0.0042704614 -0.0062000044 0.0012879646 -0.0037195338 -0.005397727 -0.004531195
-0.0033665905 -0.0045250854 -0.008450532 -0.00048061836 -0.0032786587 0.0012261828 -0.004670523 0.0028348863
-0.0043249284 0.004081063 -0.017119592 -0.0050037196 -0.0028671487 -0.006317289 -0.016098008 -0.0027368513
-0.009390473 -0.0031256697 0.0014780086 -0.002818575 -0.013633964 -0.0072176997 0.0023617805 -0.006819346
-0.002562148 -0.0041306964 -0.0070673083 -0.0010558725 -0.001729731 -0.0041048275 -0.008928266 -0.009482638
-0.0030937837 -0.000384552 -0.0057254867 -0.005668683 -0.0069465647 -0.0070637516 0.00085464277 -0.0067626834
-0.0006145613 -0.0044461223 -0.0020190964 -0.009210282 -0.0061797327 -0.005465544 -0.0086631635 -0.002120649
-0.0036431118 -0.01682684 -0.008586137 0.0018888623 -0.007392235 -0.0024683436 -0.00096682156 -0.009325703
-0.0043986463 -0.0011171524 -0.006481204 0.00028281313 -0.005665986 -0.0027709824 0.00011892745 -0.0060206805
-0.009709145 -0.012509214 -0.0035089448 -0.0026904086 -0.011604813 0.0021440338 -0.00037999635 -0.005574798
-0.0020592124 -0.0039665857 -0.009376155 -0.0048974757 -0.0028504424 -0.010192947 -0.0025698803 0.0029229713
-0.008279293 -0.004287094 -0.011811034 -0.0032773702 -0.011306848 -0.0066901557 -0.006467891 -0.0012678801
-0.0016677161 0.0014640868 -0.024620399 -0.002912863 0.0014149472 -0.00092930865 -0.0062128734 -0.00021183146
-0.003953098 -0.015494172 -0.004391282 -0.002560557 -0.002689161 0.002179206 -0.0072646616 -0.008280024
-0.009444533 0.0006888178 -0.00448445 -0.0038684134 -0.005376254 -0.006399542 -0.0029383223 -0.0005667934
-0.0080325445 -0.007413562 -0.0059024976 -0.0025533328 -0.0015903639 -0.0042002285 -0.0063314657 -0.003054358
-0.0037220768 -0.0113634 -0.0062306253 -0.002553916 -0.009724687 -0.006801543 -0.008246542 -0.0016941918
-0.007397772 -0.0024800343 -0.0012216248 -0.0026804912 -0.0050572143 -0.004486154 -0.006089814 -0.011113326
-0.007704203 -0.013782227 -0.001764752 -0.0024460165 -0.008694064 -0.0061940043 -0.010144889 -0.001029223
-0.0036778713 -0.00632291 -0.0015558219 -0.003631516 -0.0072915936 -0.0052227015 -0.0027548461 -0.0021386484
-0.0011824149 -0.0012591245 -0.012802561 -0.0014392716 -0.006306741 -0.010733388 -0.0036081208 -0.00039567956
-0.005349077 -0.0006802113 -0.0008308914 -0.0016427465 -0.005081811 -0.0059688766 0.0023487117 0.0002663034
-0.007519758 -0.0039489386 0.0012647263 -0.0062321248 -0.0071175527 -0.009534975 -0.012183409 -0.0061195064
-0.0031357105 -0.0014265914 -0.0076230643 -0.011369664 -0.0060227634 -0.00069992954 -0.007268836 -0.00023661925
-0.007373904 -0.0011639096 -0.009464818 -0.0013889887 0.0022388403 -0.0040214644 -0.0064954394 -0.009599573
-0.0048601115 -0.0026728662 -0.004370836 -0.0025066398 -0.0028732999 -0.005384624 -0.0112945335 -0.004453496
-0.0081894975 -0.009626271 -0.006413426 -0.0053478344 -0.00518396 -0.0023452076 0.00087617896 -0.0066225887
-0.006198517 -0.0014744613 -0.008529714 -0.010572468 -0.008275382 -0.0013735837 -0.0069622863 -0.009608881
-0.010144057 -0.00058516813 -0.004859156 -0.007452966 -0.012311051 0.0011224193 -0.0030427086 -0.006250814
-0.005348083 -0.0041043605 -0.0014372026 -0.0025633122 -0.004877998 0.0014255372 -0.0012280256 -0.0024382356
-0.010322558 -0.0118044 -0.007464699 -0.004337858 -0.0035222925 0.002369457 -0.0027181408 -0.011734365

embedding_extractor.1.running_mean f4 [256]
00000000: b772 60bd 6d5a 483b 6429 903d b51a 5c3d
00000010: 4125 e23b c917 4fbd 131a 123d ea4c 50bc
00000020: cf22 ddbb 4a5b 72bd 1aef 173d 1e5a b1bc
00000030: 8290 823c 1ccb f4bc e533 5cbd 3d83 8a3c
00000040: 5b8e 883b 9a7a 75bd 3d1c 2e3c 6653 bc3c
00000050: 1800 e4bc aa70 efbc ff11 c3bc 9cdb 02bc
00000060: 22b8 a2bc fa8e 933c 6997 193d 423c 1b3d
00000070: e192 88bc dba6 dcbb 666e d93c 0414 babc
00000080: d9b5 633d d7ff e1bb 4c7e 6f3d 4bcb 97bc
00000090: 14d4 ecba 5d52 1fbc c3e2 b0bc c2e2 88bd
000000a0: fb82 d83c 816a 1d3d db0d dabc ea2b c3bc
000000b0: 3cfe bbbc e94b 9dbb 22fc bc3d a88a 3a3d
000000c0: e49b c1bc fbab 133c 6429 2abd 6ee6 ab3c
000000d0: 0889 2dbd 0c48 583c ef83 093c 0104 c8bc
000000e0: 1b83 413d cae8 87bd 1a7e 1c3c bb26 333d
000000f0: e4d1 833d ecc5 463c 0edd 2f3b 65b4 703d
00000100: f1a4 e238 dea3 9a3d 1d40 a33c 6990 b1bd
00000110: 77b6 41bc 4cf3 e13c 96ca 643c ab8b 973c
00000120: 2b32 03bd 1adf 23bc b7ae 293d a77e fc3c
00000130: 9142 7ebc b3a4 07bd 678e 093c 0f77 3a3b
00000140: 0e5a 3a3d 2fa5 3e3d e5e3 033d b1ea a53c
00000150: 40ea 2fbd 11a8 72bc 83a1 2d3c acd2 05bd
00000160: d0e7 cf3c ef1b 963c 90df 09bd 8ed6 f73c
00000170: b798 3abd a8d0 8f3d de2f 463d cd5d 963c
00000180: 9d4a 883d 9e45 1e3c abb5 dcba 55e8 39bd
00000190: c72a 34bd a2e9 8f3d f082 04bd cf94 afbc
000001a0: 7112 133b 7c20 1c3d f302 c23d fa33 77bc
000001b0: 1638 0f3b fe62 03bc 626e d53c d480 2b3d
000001c0: 22ee 113c 5ec3 a1bc 0ebb 89bd 6d75 56bc
000001d0: 660f 103d e511 e1bc 54a6 81ba 1cdf 373d
000001e0: 2952 ac3c 992b 8fbc 91a6 12bd 3df0 b13c
000001f0: 861f 1abc 0351 923d b444 613d c3a8 33bd
00000200: e6a8 24bd c876 293d d3b3 0d3d c7ca 4abc
00000210: 69a1 c33c 4f48 5f3d afd2 c6ba 240d 133d
00000220: 4427 a2bd 1158 243a c2cb 293d f635 6a3d
00000230: 2d92 a83d f107 0c3d 2280 fabc 197e d23c
00000240: ffd3 4abd 17a4 e1bc 9071 553c ae6d 02bd
00000250: be80 54b8 eedd e83c 5cf5 14bd fb41 b33c
00000260: 3993 a9bd bea7 533c d1a6 abbd 7b65 01bd
00000270: cddc 22bd fb3c 113d ca3a e93c 20d1 2ebb
00000280: 0014 0dbd 1f92 7fbd ec5d 85bc bd24 4c3c
00000290: 59cb 64bd f99e 193d d54c 21bd 74de 30bd
000002a0: 4525 603d e0d4 b13c ecf2 26bd 4a0d f43c
000002b0: dc9f 533d bef2 b93c 7d61 f5bc 35b0 d43d
000002c0: 0761 333d de2b 02bc 2a65 263d e658 4cbd
000002d0: 77e6 19bd 9758 38bb 6006 d73c aa33 523c
000002e0: a0a4 223b b1e0 72bc 71c5 943b 0a39 f2bc
000002f0: 96fb a3bb cac2 84bd 2588 95bd 15f5 953c
00000300: 3883 60bd 2b67 97bc 1229 873c 3d6e 8e3c
00000310: a625 983b 6ee6 fabc 99e0 863d 6c03 12ba
00000320: 76e2 af3c 6cae 6f3b 3fc3 553d 5350 8fbc
00000330: 235b 8c3d 08d2 58bc 68d6 49bb b9a9 4bbc
00000340: 06f6 1a3b 0008 ac3c 4ff1 12bd c3d1 8fbd
00000350: 94cd 9c3b 5138 60bd 4b50 693d 973f 583c
00000360: 51b1 003d 0e3e 9cbd 52ef c2bc bfb7 21bd
00000370: 6f0c 8b3c 32d7 683d eeaa aa3c 4633 10bd
00000380: bfe8 b83c 27d1 963b 1a9c d4ba ae23 1bbb
00000390: cab0 5f3c 178e babc 193a ca3c 81c3 4a3d
000003a0: 2d99 403d 4450 383d 6a87 49bd 9ed1 bebc
000003b0: 38ba fabc ad7f 9abd 5104 1e3d 5970 0abc
000003c0: 5097 463d 6e5b a6bb f84e ca3c 1e3f 9b3c
000003d0: a757 19bd 8c7b 3d3d 0dc4 8d3c b533 70bc
000003e0: b8e1 8ebd 61bf d93b c1b1 3d3d 2472 bebb
000003f0: dfdb 1d3d ff99 a53d 836c 993c b4eb e3bb
-0.0547969 0.0030571476 0.07039145 0.053736407 0.0069014137 -0.050559793 0.035669398 -0.01271365
-0.0067485343 -0.05916909 0.03709326 -0.021649417 0.015938047 -0.029882006 -0.053760428 0.016908282
0.0041673607 -0.059931375 0.01062685 0.022988986 -0.027832076 -0.029228527 -0.023812292 -0.007986929
-0.019863192 0.018012512 0.03749791 0.037899263 -0.0166716 -0.006733758 0.0265419 -0.022714622
0.055593345 -0.0068969536 0.058470055 -0.018529555 -0.0018068575 -0.009724227 -0.021592503 -0.066838756
0.026429644 0.03843165 -0.026617935 -0.02382465 -0.022948377 -0.004800309 0.09227778 0.04554239
-0.023633905 0.009013171 -0.04154338 0.0209839 -0.04236701 0.013200771 0.008393272 -0.024415972
0.047244173 -0.06636198 0.009551549 0.043738108 0.06436518 0.012132149 0.002683464 0.058765788
0.000108072425 0.075507864 0.019928033 -0.08670122 -0.011823288 0.027581833 0.013964316 0.018499216
-0.032030266 -0.010001922 0.041426387 0.030822111 -0.0155188 -0.033116054 0.008395768 0.0028452312
0.04549604 0.04654425 0.03219976 0.020253511 -0.042948008 -0.014810578 0.010597589 -0.032671615
0.025379092 0.018323867 -0.03366047 0.030253675 -0.045555796 0.0702222 0.048385493 0.018355275
0.06654856 0.009660153 -0.0016838809 -0.045387585 -0.04398611 0.07026984 -0.032351434 -0.021433262
0.0022441412 0.038116917 0.09473219 -0.015088076 0.0021853498 -0.008019207 0.026053611 0.041870907
0.008906873 -0.019746479 -0.06725131 -0.01308952 0.035170935 -0.027474353 -0.0009891489 0.044890508
0.02103527 -0.017476844 -0.03580338 0.021721 -0.00940693 0.07144358 0.05499716 -0.043862116
-0.040200137 0.041373044 0.034595322 -0.012377447 0.023880677 0.05451232 -0.001516899 0.035901204
-0.079176456 0.00062692264 0.041454084 0.057180367 0.08231006 0.03418726 -0.030578677 0.025694894
-0.04951858 -0.027544064 0.013027564 -0.03184288 -5.066464e-05 0.028426137 -0.036366805 0.021882048
-0.082800336 0.012918411 -0.08381427 -0.03159092 -0.039761353 0.035458546 0.028470416 -0.0026674941
-0.0344429 -0.06239521 -0.016280137 0.012459931 -0.05585799 0.037505124 -0.039379913 -0.043180898
0.054723043 0.021707952 -0.040759012 0.029791493 0.051666126 0.022698756 -0.029953713 0.10385171
0.043793704 -0.007945029 0.04062382 -0.049889468 -0.037573304 -0.0028128976 0.026248157 0.0128297005
0.0024817362 -0.014824078 0.0045401384 -0.029568214 -0.0050043566 -0.064824656 -0.07301358 0.01830534
-0.05481264 -0.018481812 0.016499076 0.01738655 0.00464316 -0.030627456 0.06585807 -0.0005569968
0.02147029 0.003657247 0.052188154 -0.017494356 0.068533204 -0.013233669 -0.0030797962 -0.012430602
0.0023645177 0.020999908 -0.03587466 -0.07022431 0.004785249 -0.054741208 0.05696134 0.013198755
0.031419102 -0.076290235 -0.023795757 -0.039481875 0.016973702 0.05684585 0.020833459 -0.03520515
0.02257192 0.0046025696 -0.0016220838 -0.002367239 0.01365299 -0.022772832 0.024685906 0.049502853
0.04702108 0.044998422 -0.049201407 -0.023293313 -0.030606374 -0.075438835 0.038578335 -0.008449637
0.048484147 -0.0050768172 0.024695858 0.018950995 -0.037437107 0.0462604 0.017305398 -0.014660765
-0.06976646 0.0066451286 0.046312097 -0.0058119465 0.038539764 0.08086013 0.0187285 -0.0069555882

embedding_extractor.1.running_var f4 [256]
00000000: a26e a23b 292c d53b 7fcb 953b cfb2 c63b
00000010: 8cc4 4d3b 34f0 493b 67e2 663b 1864 8d3b
00000020: cd81 993b a8d4 8d3b de15 a63b 16ca 193c
00000030: 57b2 933b a94b d33b c215 263c eafe 523b
00000040: 129a 963b da7e f33b 8e28 913b adf4 543b
00000050: 6947 e73b 1922 cb3b 7fbd c43b 38ed ae3b
00000060: 056f cd3b 7caf 8d3b 51aa c63b 242f 8e3b
00000070: 8f48 cf3b 0372 8b3b 4b96 953b b807 4a3b
00000080: aec5 903b a1ff a63b 610d af3b 3f75 033c
00000090: 86a9 a83b 04ed c53b 397a 983b f361 c03b
000000a0: e6e3 6c3b 2f2c a53b b7bf b13b 5602 ad3b
000000b0: 4a76 ce3b 6ded b43b c376 9a3b ea5c bc3b
000000c0: 2bd8 7f3b e58a e83b 709c f83b 8b41 a03b
000000d0: dd94 a53b 86f3 ef3b fbfa 873b 8bf4 563b
000000e0: adbd b73b 213d 723b 0b28 8f3b fdf9 a53b
000000f0: 914f 913b 4632 5c3b a720 bc3b a2e1 f53b
00000100: f3cd ce3b 7e7d 6e3b 50df 9c3b e593 653b
00000110: 0b0d b73b 3805 6b3b 3ba4 523b 9895 c23b
00000120: c21e 9a3b 5284 b33b cd2c 7a3b 641c 043c
00000130: b680 d23b 7342 d23b 34ba fa3b b5cc 9e3b
00000140: ad7c a63b fc8a 893b 0131 823b 2c68 4b3b
00000150: 973d 8b3b 087b b13b 2e08 163c 12db e73b
00000160: b751 b23b c81b d23b 6008 8f3b 405e 603b
00000170: 7bb6 c23b dc20 943b bd0d 673b d0b8 ad3b
00000180: cc4e 6e3b f44b 8c3b 27b8 cf3b 08bb 013c
00000190: cbf6 6d3b 050b 943b 9d16 033c 9f29 ad3b
000001a0: 3106 663b c045 8f3b 4fed 9f3b 6c19 943b
000001b0: 785c d23b 1eba 8c3b f792 8d3b 8abc 013c
000001c0: bb04 7b3b 3fb6 a13b 411e 8d3b 9c3f dc3b
000001d0: 729e 963b 8fee 1b3c 69d4 6d3b ece0 003c
000001e0: 899d bf3b 8acd f93b 927a 8d3b 0cb6 ec3b
000001f0: 436c ea3b d07a f23b 5d26 d23b 1f84 8b3b
00000200: a9b3 a13b 0832 863b f557 8b3b b99a 8d3b
00000210: 1cb3 f33b c603 a93b 069e b83b ae08 b73b
00000220: 7979 dd3b e59e d93b bddb ed3b 6a55 b33b
00000230: f83f 983b 1bc9 e63b 9989 e23b c6fc 6e3b
00000240: e1b6 293c bc81 8d3b 8b89 9f3b b2d1 d13b
00000250: 80ce d03b e536 983b 3033 c33b e849 cd3b
00000260: 8022 9f3b 59ca cc3b c758 d63b 75f0 cd3b
00000270: 1ca8 9a3b 9a31 133b de53 853b c268 e73b
00000280: 9ebe b43b b4a7 9c3b 036f b83b 38d9 4d3b
00000290: 0234 b63b 222d 803b b773 673b 008a 9e3b
000002a0: 1ad3 8d3b 36b8 a13b f733 9c3b 7a83 cf3b
000002b0: e969 693b 31ad ad3b 9143 a93b 9252 af3b
000002c0: d0ce 953b e358 933b bf69 6b3b 736e d33b
000002d0: 2905 943b a6f2 893b 5547 753b 016b b03b
000002e0: 0a8d f83b 35c7 bf3b 96a0 573b 483c a93b
000002f0: 62cd d23b 8267 3c3b c3eb bb3b 3a35 653b
00000300: d6cd a53b b35f d53b f203 813b 4151 623b
00000310: 9636 db3b 6f76 b83b 9a7e 723b 914d b73b
00000320: b286 f43b 8433 063c eb1c e53b 594e 0e3b
00000330: 2654 913b fd4b 963b c8cd fc3b a639 423b
00000340: 6b2d e13b 6057 e73b 8ee2 963b e261 ab3b
00000350: 87c0 893b 2050 003c d73e 783b 3b90 093c
00000360: da96 f63b 1e3d bf3b 1162 c03b 7165 bd3b
00000370: 1cbb 933b c222 c03b dac5 c13b 59d3 bd3b
00000380: 25e2 d53b b06a b33b 4347 e63b b620 e73b
00000390: ae09 853b 59e7 913b 801c 9a3b 35fd 453b
000003a0: 1975 5c3b d2fc ae3b 77e8 983b 700e cd3b
000003b0: 05c8 a33b 3ecc 953b 2e10 853b e767 8a3b
000003c0: 8b45 b13b 4401 a23b ad67 d53b 5d34 ac3b
000003d0: 1c46 ba3b 78fa b43b 5725 8b3b 99d2 ee3b
000003e0: e36a ea3b 5b5a 923b 65b1 853b 272b a53b
000003f0: 96c2 f53b 1507 013c 105d d53b 9170 6b3b
0.004957036 0.0065055084 0.0045713778 0.006063796 0.0031397669 0.0030813338 0.003523016 0.0043149106
0.004684663 0.004328329 0.0050685247 0.00938656 0.0045073438 0.0064482284 0.010137023 0.0032195398
0.0045960033 0.0074308934 0.0044298833 0.003249447 0.0070580733 0.006199133 0.006004035 0.0053383373
0.006269338 0.004323898 0.0060627838 0.0043391157 0.0063257883 0.0042555346 0.0045650355 0.0030827355
0.0044180965 0.0050963913 0.005342171 0.008023559 0.005147162 0.0060402174 0.004653242 0.0058710515
0.003614658 0.0050406675 0.0054244655 0.0052798195 0.0063007222 0.0055214674 0.0047138645 0.005748381
0.0039038758 0.0070966356 0.007587008 0.004890626 0.0050531463 0.0073227314 0.0041497923 0.0032799568
0.005607328 0.0036962705 0.004368787 0.0050652013 0.004434534 0.0033599301 0.005741197 0.007503704
0.006311172 0.0036390717 0.004787363 0.003503078 0.0055862716 0.0035861265 0.0032141346 0.005938243
0.0047033736 0.0054784203 0.0038173676 0.0080634095 0.006424035 0.006416613 0.0076515917 0.0048461803
0.0050807805 0.0041974764 0.003973127 0.0031037433 0.0042492854 0.005416278 0.009157224 0.0070756758
0.00544187 0.006412003 0.004365012 0.0034235865 0.0059421635 0.0045205187 0.0035255991 0.0053015724
0.0036362885 0.0042815153 0.0063390913 0.007918127 0.003631043 0.004517915 0.008000997 0.0052845026
0.0035098905 0.0043723285 0.0048805843 0.004519632 0.0064197145 0.004294648 0.004320498 0.007918486
0.003830238 0.0049350555 0.004306585 0.00672145 0.004596525 0.009517326 0.0036289936 0.007866126
0.005847637 0.007623379 0.00431759 0.00722385 0.007154019 0.0073998943 0.0064132647 0.0042576934
0.0049347472 0.0040953197 0.0042524287 0.004321423 0.007437123 0.0051579205 0.0056340722 0.0055857515
0.0067588654 0.006641256 0.007258861 0.0054728286 0.0046462975 0.0070430166 0.0069133756 0.0036466583
0.010358543 0.004318444 0.0048686913 0.0064031715 0.006372273 0.004645216 0.0059570298 0.006264914
0.0048564076 0.0062497077 0.006541345 0.006284768 0.004719747 0.0022459985 0.0040688356 0.0070620487
0.0055158874 0.004780734 0.005628468 0.003140999 0.005560399 0.0039116303 0.0035316774 0.004838228
0.004328144 0.0049352897 0.004766937 0.006332812 0.0035616106 0.005300187 0.0051655252 0.0053504193
0.004571773 0.00449668 0.0035921184 0.0064523756 0.0045172167 0.004209834 0.003742655 0.0053838496
0.0075851725 0.0058526048 0.0032902113 0.005164657 0.006433175 0.002874822 0.005734892 0.0034974352
0.005059938 0.0065116524 0.003937238 0.0034533294 0.0066898568 0.0056293528 0.003700173 0.0055939634
0.007462346 0.008190993 0.0069919727 0.002171418 0.00443508 0.004586695 0.0077149607 0.0029636412
0.0068718693 0.0070599765 0.004604644 0.0052301744 0.0042038593 0.007831603 0.0037879252 0.008396204
0.007525307 0.005836143 0.0058710654 0.005779915 0.004508389 0.0058635185 0.0059134783 0.005793017
0.0065272027 0.0054753646 0.007027538 0.00705346 0.004059992 0.0044526276 0.0047031045 0.0030210738
0.0033639132 0.005340197 0.004666384 0.0062578246 0.0049982094 0.0045714667 0.0040607667 0.004223812
0.0054099015 0.0049439985 0.0065126033 0.0052552656 0.005684627 0.0055230223 0.0042463946 0.007288289
0.007153855 0.0044663376 0.004079985 0.0050405446 0.007500003 0.007875224 0.006511338 0.003592525

embedding_extractor.4.weight f4 [128, 256]
00000000: 7488 8bbc c4c5 313c 55f5 7dbb c4c8 10bd
00000010: 2d86 d9bc 8077 88bc 223d 133c 96b4 483c
00000020: b6b1 acbb a8f3 0fbc 017d de3c b058 be39
00000030: e7b7 66bc 8bb6 c0bc 83b7 b73b 48fb e6bc
00000040: d4ca 0e3c 7150 87ba 176e 983a fe66 a7bc
00000050: 8c1e c438 4697 cc3c fde0 00bc 3254 ebbc
00000060: b141 d6bc 2dd6 0ebd 0e5e 06bd 7e78 55bc
00000070: 3882 eebc e0b6 fd3b e874 4dbc 2a69 5c3c
00000080: 6fcb 41bc f94c 1a3b 5f8e 32bc 433b 08bc
00000090: 5037 853c 6c25 8b3c 4a87 bf3b 999a 623b
000000a0: 831d 0fbd b0b7 9c3c d519 84bb b1c3 e03b
000000b0: d550 0d3b fde6 45bc 05fe 933b 3682 c73c
000000c0: fa9e e9bc d177 653c eaec 933c d8fb aebc
000000d0: b87f ad3c b599 dabb f304 d8bc 2cf7 b23b
000000e0: 25fd 0b3d 07b8 03bd 243f 12bc 3dc2 533c
000000f0: c307 303c a53d f3bc 933d 353c 97ba 8abc
00000100: a7e2 813c 03a1 9e3b fab2 86bc 589b 0abd
00000110: 5e9b 493c 7d58 f03c 5689 063c 4773 a83c
00000120: 60f6 d03b 0560 303c 6416 14bc f38b 54bc
00000130: 6240 713c fdb2 9a3c d1b7 2e3b d55d 0d3c
00000140: 92ef ba3a e5f3 053d 4445 5cbb 6fa8 213d
00000150: d3a7 9dbc 18e7 88bc ad76 d13c e890 aabc
00000160: 81c7 04bd 36d5 04bd 0052 0c3c ed5c 6ebc
00000170: ca3b 533b 2207 b03c c43e dc3c b9a5 3a3c
00000180: 8bae 063d f6dd 90bc e2b2 db3a 668c 9d3c
00000190: 4cdb 97bc 8d1d 093c d5a2 9ebb 1d99 6cbc
000001a0: d84f e0bc 8297 d6bc 8824 8a3b ba03 eabc
000001b0: 02f1 9fbb 821a 5a3b 5e40 e43c b75f bc3c
000001c0: 3412 d53a 740e 8e3c e395 eb3c 90eb 9d3c
000001d0: 57ba d53b 06ad cb3c 596e a5bc 2f28 803c
000001e0: dd65 953c 2ec1 00bd 269a 61bc 221e 2e3c
000001f0: 2dea f0bc a0ff 95bc 5d19 a7bc ffd0 313b
00000200: 1dff 85ba e6bf 07bd 2290 8dbc 7d41 5bbc
00000210: e795 503c 6459 d3bb 4adf bcbc d84e 1fbc
00000220: f949 9cbb 65e2 d83c 0fe2 e8bc 0871 4b3c
00000230: ec92 213c f350 c93c 70da 1ebc 56ab 8e3c
00000240: 3948 06bd a47a 63bb 187d dcbc 1f61 f13c
00000250: a3e5 933c 287a 1f3c b52e a83c be02 85bc
00000260: 3d10 8dbb 33f9 c2bc eb8b 653c a674 fd3c
00000270: 1b28 9cbc 8296 183c e8f5 ad3c 77c5 233c
00000280: bbc9 963c bf1d 18bd 8505 523b fb4b bbbc
00000290: 66a1 3a3c a5a2 e43c f4c3 81bc 0a1d eebc
000002a0: f2f8 b53c c4f1 08bb 3dce 2a3c b074 d6bc
000002b0: a18a a53c 636a 9ebc 8027 05bd 83a4 e9bc
000002c0: 05d7 e3bc ecb5 f5bc e9f5 cabc 8065 c9bc
000002d0: 7b78 bbbb 01b1 bebc fd0b 59bc ffeb a6bc
000002e0: a49d 8c3c 34c6 c8bc 3d40 ff3c f656 b6bc
000002f0: 7ecf 02bc 9c22 8cbc b51e 253d 3e84 c9bc
00000300: 8bfd 86bc ca95 f73b 51c6 1d3b 27de 3a3d
00000310: 462d d23c 3fce ae3b a64a 583b 0f9b 013d
00000320: f9a4 d03c c1d9 cbbc 534e 953c c8f2 b1bc
00000330: ec8e 783c a875 b33c b9e8 e33b 42b1 473c
00000340: 6025 8e3c a2cf b83c 2efa 6a3b 4d43 aa3c
00000350: 63ae b5bc 6cca c43c df98 bcbc 6ab4 52bc
00000360: 3a4e ca3c 97f3 19bd f4de eb3c 9c05 c6bb
00000370: 60b9 fbbc 5f01 b9bc e73b 01bd d0f3 913c
00000380: 8e18 01bc b2a2 5cbc da3a 9fbc 6b35 823b
00000390: 6547 8dbc e52b d5bc 0c32 bf3b c7ae 5abb
000003a0: dc5c 36bb 7b53 21bc 4f8b 4cbc 6e36 fdbc
000003b0: c80c 333c 935c aa3c ec02 b03a 71a1 41bc
000003c0: 366c 353c cf97 1cbc e888 b6bb a11d aebb
000003d0: c9ab 93bb f33b 04bd c65b 073d 5e0c 01bd
000003e0: 9462 353c 9a54 0e3d 9aad c7bc d627 79bc
000003f0: a03a 0a3d f43d 993c 300a 4dbc 2ebd d73b
-0.01703284 0.010850374 -0.0038750966 -0.035347715 -0.026553238 -0.016658545 0.008986743 0.012250086
-0.005270208 -0.0087861195 0.027159216 0.000363057 -0.014081932 -0.023524543 0.005606593 -0.028195992
0.00871535 -0.0010323656 0.0011629489 -0.020434853 9.351698e-05 0.024974477 -0.007866141 -0.02872667
-0.026154371 -0.034872223 -0.03280454 -0.013029216 -0.029114828 0.0077427477 -0.01254008 0.013452807
-0.0118282875 0.0023544414 -0.010898202 -0.00831491 0.016261727 0.016985618 0.005844985 0.003457701
-0.034940254 0.019130558 -0.0040313997 0.0068592657 0.0021563072 -0.012078998 0.0045163655 0.024354082
-0.028518189 0.014005617 0.018057305 -0.021360323 0.021179065 -0.0066711553 -0.026369547 0.005461594
0.034176964 -0.032157924 -0.008926187 0.012924728 0.010744038 -0.02969248 0.011062044 -0.016934676
0.015855147 0.0048409714 -0.016442765 -0.033839554 0.012305109 0.02933907 0.008211454 0.020562781
0.0063770264 0.01076508 -0.0090385415 -0.01297282 0.014724823 0.018884176 0.0026659856 0.008628328
0.0014262071 0.0327033 -0.0033610621 0.03946727 -0.019245064 -0.016711757 0.025569284 -0.02082105
-0.032416824 -0.032429896 0.008564472 -0.014548522 0.0032231682 0.021487776 0.026885398 0.01139205
0.0328813 -0.017683964 0.0016761685 0.019231986 -0.018537186 0.008368862 -0.0048411884 -0.014440802
-0.027381822 -0.026195291 0.0042157806 -0.02856623 -0.0048810253 0.003327996 0.027862724 0.02299486
0.0016256035 0.017340876 0.028757995 0.019277364 0.0065224576 0.024862777 -0.02019422 0.015644161
0.018237049 -0.03143423 -0.013769662 0.010627301 -0.029408539 -0.018310368 -0.020397836 0.0027132628
-0.0010223124 -0.033141993 -0.017280642 -0.013382313 0.012731052 -0.006449865 -0.023055691 -0.009723388
-0.0047695604 0.02647514 -0.028428106 0.0124170855 0.009861689 0.024574732 -0.009695634 0.017415684
-0.03278372 -0.003471055 -0.026915118 0.029465256 0.018053835 0.009733714 0.020530084 -0.01623666
-0.0043049143 -0.023800468 0.01401041 0.030939411 -0.019062093 0.009313228 0.021235421 0.00999581
0.01840674 -0.037137743 0.0032046747 -0.022863379 0.011391019 0.027909586 -0.015840508 -0.029066581
0.022213433 -0.0020896057 0.010425148 -0.026178688 0.020207705 -0.019337839 -0.032508373 -0.028520828
-0.02781249 -0.029993974 -0.024775462 -0.024584532 -0.0057211495 -0.023277761 -0.013247487 -0.020376204
0.017165013 -0.024508573 0.03115856 -0.022258263 -0.00798404 -0.017106347 0.040312488 -0.02459919
-0.01647832 0.007555698 0.0024074505 0.045622017 0.025656354 0.005334645 0.0033003478 0.031642016
0.02546929 -0.024884107 0.018225824 -0.021722212 0.015170794 0.021906689 0.006955233 0.012188258
0.017351806 0.022559945 0.0035854685 0.020784045 -0.02217788 0.024022304 -0.023022113 -0.012860397
0.024695504 -0.03758582 0.028792836 -0.006043149 -0.030728042 -0.022583662 -0.031551268 0.017816454
-0.007879389 -0.013466524 -0.019437242 0.003973653 -0.017245958 -0.026021907 0.0058348235 -0.0033368336
-0.0027826345 -0.009846563 -0.012484386 -0.030909743 0.01092834 0.020796096 0.0013428605 -0.011818276
0.011073163 -0.009557678 -0.0055705197 -0.0053135906 -0.0045065624 -0.032283735 0.033046506 -0.031505935
0.011070866 0.03474865 -0.024374772 -0.0152072515 0.033747315 0.0187063 -0.012514636 0.0065838313

embedding_extractor.4.bias f4 [128]
00000000: 87cd 7733 4b91 52b2 c9de f431 bb11 c0b2
00000010: 812f 6f32 f698 04b0 4acb 3632 2af6 1132
00000020: 3450 c533 8f4c 57b2 e79a 51b2 9bd1 9633
00000030: 6ec3 2e33 f724 a432 f048 adaf d335 dfb0
00000040: bbf5 d0b2 80b4 7d32 5b75 dc32 9559 3bb2
00000050: 9d06 1c33 e477 5b31 b174 fcb1 e4ee 8e32
00000060: 6f55 45b3 1a27 f2b2 211e 8031 92f0 9532
00000070: 0b9e fab2 e926 e7b2 e531 b1b4 caf4 3ab2
00000080: 99ea 08b2 cac7 1b33 08c2 be31 4e19 c132
00000090: 483f 2a33 c1c7 34b2 2072 2cb3 8673 9330
000000a0: 6604 20b1 ec89 2033 5006 b5b2 ae1c 3332
000000b0: ddb2 6933 67fe afb5 d2e7 8830 50a5 ba31
000000c0: 0899 13b3 5402 1332 3a77 bcb1 13ce 0f30
000000d0: b4ff db31 e6da e730 8a59 a531 bb56 4832
000000e0: f740 e132 222a d632 0114 2ab4 1cea c5b2
000000f0: a702 8cb3 e802 8c32 8b77 3833 1620 d832
00000100: 7850 0233 672c e6b1 bf5f 9ab2 8eb6 6a33
00000110: 528e 7632 1b93 e0b0 a31e 0b32 62f8 e2b1
00000120: fafb 60b3 d79f d832 8df3 2bb2 3ede c9b1
00000130: a579 0fb3 65df 41b3 abba 9130 7ab8 0d32
00000140: 5eff 55b2 25e7 92b2 c966 f132 0f4a ccb2
00000150: edea c2b2 80e2 f030 beda bfb0 4486 3632
00000160: fc56 1c33 5786 cfb2 af34 7db2 a132 e132
00000170: 60cb fd32 2e0b 1931 96d8 0c32 f9b2 9832
00000180: 726a d7b1 7de6 58b2 0c59 8232 6509 cd33
00000190: 908c 9d30 8548 7fb1 d9af 3cb1 d54b bab2
000001a0: 1275 22b3 1987 eb32 536f 5fb3 ed04 0c32
000001b0: bac2 da33 563c 6db3 32c2 8b32 65ca d3b3
000001c0: 7b45 b8b3 780c 3831 0d54 1db2 7534 1333
000001d0: 88af c8b2 c0db 8db1 edff 21b0 a4e1 d7b2
000001e0: f70e acb1 4c51 8632 4613 1db3 3f7f 5833
000001f0: 90e5 10b2 49b9 edb2 65ab 37b2 f28b 1a33
5.7696095e-08 -1.2256645e-08 7.1266624e-09 -2.2359805e-08 1.3922432e-08 -4.823869e-10 1.0640017e-08 8.496082e-09
9.188116e-08 -1.25320545e-08 -1.2200622e-08 7.023046e-08 4.0690274e-08 1.9108922e-08 -3.1520342e-10 -1.6240683e-09
-2.4326132e-08 1.4767579e-08 2.5664738e-08 -1.0905201e-08 3.6327595e-08 3.1936844e-09 -7.3474316e-09 1.663961e-08
-4.5945338e-08 -2.819029e-08 3.7287156e-09 1.7455282e-08 -2.91757e-08 -2.6909634e-08 -3.3005122e-07 -1.08822835e-08
-7.969583e-09 3.6270457e-08 5.5517866e-09 2.2479664e-08 3.9638763e-08 -1.0522798e-08 -4.0150667e-08 1.0728491e-09
-2.3285565e-09 3.7378342e-08 -2.1074044e-08 1.0425692e-08 5.4412215e-08 -1.3112557e-06 9.96119e-10 5.4321063e-09
-3.4365286e-08 8.5570555e-09 -5.4850746e-09 5.2315946e-10 6.402809e-09 1.6869677e-09 4.8123114e-09 1.1661252e-08
2.622299e-08 2.4932039e-08 -1.5839761e-07 -2.3040279e-08 -6.5197405e-08 1.6299467e-08 4.2949562e-08 2.51603e-08
3.034117e-08 -6.698929e-09 -1.79715e-08 5.4648403e-08 1.43514445e-08 -1.6339955e-09 8.097831e-09 -6.6057035e-09
-5.2383236e-08 2.5218396e-08 -1.0008887e-08 -5.875136e-09 -3.3405417e-08 -4.513949e-08 1.0603193e-09 8.249225e-09
-1.24562956e-08 -1.710175e-08 2.8102834e-08 -2.3782404e-08 -2.2691404e-08 1.7526673e-09 -1.3959249e-09 1.0624323e-08
3.6400692e-08 -2.4159062e-08 -1.4738517e-08 2.621647e-08 2.954556e-08 2.2270785e-09 8.1983185e-09 1.7776516e-08
-6.269425e-09 -1.2625262e-08 1.5174486e-08 9.547765e-08 1.1463204e-09 -3.7148606e-09 -2.7457558e-09 -2.1687734e-08
-3.782504e-08 2.7419036e-08 -5.2022482e-08 8.1501925e-09 1.01868366e-07 -5.5235738e-08 1.627004e-08 -9.8622685e-08
-8.580806e-08 2.6782612e-09 -9.157714e-09 3.4273814e-08 -2.3362887e-08 -4.1286228e-09 -5.893515e-10 -2.5131904e-08
-5.00756e-09 1.5636623e-08 -3.657194e-08 5.040715e-08 -8.4341e-09 -2.767469e-08 -1.06909726e-08 3.59832e-08
