outputs/checkpoints/clinical_model_v1.pth (torch, 655744 bytes, 19 tensors)

embedding_extractor.0.weight f4 [256, 463]
0	0x3b9448cd	0.00452528
1	0x3ca7981c	0.020458274
2	0x3c538a2c	0.012911361
3	0xbbeef3f5	-0.0072922655
4	0xbcfda9ee	-0.030964818
5	0xbcb17a1d	-0.021664673
6	0xbc2a623e	-0.010399399
7	0xbc915f9b	-0.017745784
8	0xba49d29a	-0.00076989236
9	0x3b9500f1	0.0045472314
10	0x3bf3c7d8	0.0074395947
11	0xbaccf1ca	-0.0015636024
12	0xbc8b9d0b	-0.017042657
13	0x3c9bcd00	0.01901865
14	0xbcaadeae	-0.020858135
15	0xbbe36cb2	-0.0069404477
16	0x2100ab17	4.359452e-19
17	0x3c5801ed	0.013184053
18	0x3c38b8dd	0.011274544
19	0xbc04c97a	-0.008104676
20	0xbb8ae9f2	-0.0042393142
21	0x3c930181	0.017945053
22	0xbca3865f	-0.019961534
23	0x3cfaf1e7	0.030632926
24	0xbab7bf8a	-0.0014018875
25	0x3cf11517	0.029429002
26	0xbc20dce8	-0.009818293
27	0xbcee8561	-0.029116334
28	0xbd13aa36	-0.036050998
29	0xbc8f579f	-0.017497836
30	0xbc9d8bd5	-0.019231716
31	0xbb4d3f6d	-0.0031318322
32	0x3997d520	0.00028959755
33	0xba716d72	-0.0009209729
34	0x3bce82e8	0.0063022263
35	0x3a0d64a8	0.0005393722
36	0xbc7dacbf	-0.01548308
37	0x3c6494a3	0.013951453
38	0xbca23305	-0.019799719
39	0xba517ff8	-0.0007991786
40	0xbbbf9257	-0.0058463025
41	0x3b2718eb	0.002549703
42	0x3a942890	0.0011303592
43	0x3c885fc4	0.016647227
44	0x3b2bab71	0.0026194716
45	0x3c9aca0d	0.018895173
46	0xbc7b14a0	-0.015324742
47	0xbc3e5532	-0.011616992
48	0xbccb799e	-0.024838265
49	0x3b0fa332	0.002191734
50	0x3ad8da69	0.0016544583
51	0xbbbd0130	-0.005767964
52	0x3c14f601	0.009091855
53	0x3c5b7de9	0.013396719
54	0x3bb271d6	0.005445699
55	0x3c85969a	0.016307164
56	0x3bda8cbf	0.0066696103
57	0xba45d66c	-0.0007546905
58	0xbc908667	-0.017642213
59	0x3c263b32	0.010145949
60	0xba4da583	-0.00078447926
61	0xbc0120f2	-0.00788139
62	0xbba7e7fd	-0.0051240907
63	0x3cbc31eb	0.022973021
64	0x3ae61184	0.0017552827
65	0xbba781a9	-0.0051118922
66	0x3b27723b	0.0025550264
67	0xbbfaf106	-0.0076581268
68	0x3b9659c4	0.0045883376
69	0xbb827726	-0.0039814888
70	0x3c2932bb	0.0103270365
71	0x3c286d96	0.010280034
72	0x3c9a48d4	0.018833555
73	0x3c4c159d	0.012456325
74	0x3a6d4c57	0.0009052208
75	0x3c0cb8c6	0.008588975
76	0xbc281872	-0.0102597345
77	0xbbb379f6	-0.0054771854
78	0x3babffa4	0.0052489806
79	0x37d033bc	2.4819623e-05
80	0xbb453e42	-0.0030096923
81	0xbd0873ca	-0.03331355
82	0xbc089229	-0.008335629
83	0xbb8ff3bd	-0.0043930695
84	0xba61bb04	-0.00086109363
85	0x3b6ad253	0.003583093
86	0x3cbfdab9	0.023419725
87	0xbb23c913	-0.0024991676
88	0x3bb5c84a	0.005547558
89	0xbced5258	-0.028969929
90	0xbc6408a1	-0.013918073
91	0x3b93cb98	0.0045103543
92	0xbbe28e4b	-0.0069139353
93	0x3aecaad4	0.0018056282
94	0xbd21b666	-0.03948059
95	0xbcb244ca	-0.021761317
96	0xbafac91c	-0.0019133422
97	0x3b861432	0.004091763
98	0x3bfc5826	0.007700938
99	0x3a0976a4	0.0005243814
100	0xbc11c607	-0.008897311
101	0x3cc54505	0.024080763
102	0xbad30916	-0.001610073
103	0x3be3af49	0.006948386
104	0x8002540c	-2.13821e-40
105	0xbbfcb273	-0.0077117025
106	0xbcc0e5c3	-0.023547059
107	0xbd01d76e	-0.03169959
108	0xbae43afe	-0.00174126
109	0xbbcf0e1c	-0.0063188206
110	0x3c9c0cff	0.019049166
111	0xbbc2c5ef	-0.0059440057
112	0xbacfd624	-0.0015856666
113	0xbb607ebf	-0.0034255234
114	0xbc052e9c	-0.008128788
115	0xbc929189	-0.017891662
116	0xba482ea4	-0.00076363445
117	0x80056a6c	-4.97354e-40
118	0x3c4b089c	0.012392189
119	0xbc95c33f	-0.018281577
120	0x3ca08def	0.01959893
121	0xbca58693	-0.020205772
122	0xbc449a3c	-0.011999663
123	0x3abaf406	0.0014263398
124	0xbd0d2d0b	-0.034466784
125	0x3b9d431f	0.004799261
126	0xbbbb299c	-0.0057117473
127	0x3cd00e50	0.02539745
128	0x3d21151f	0.039326783
129	0x3bc4dbb6	0.006007637
130	0x3aa62ddf	0.0012678466
131	0x3a981cba	0.0011605241
132	0xbc683ac4	-0.014174167
133	0xba9bdc4b	-0.0011891214
134	0x3ca4c169	0.020111756
135	0x3c6c587e	0.014425395
136	0xbccbdd8a	-0.024885911
137	0xbaa70701	-0.0012743176
138	0x3c4ba93c	0.012430485
139	0x3b19c293	0.0023461923
140	0x3bfa39c7	0.007636282
141	0x3b5ed62d	0.003400217
142	0xba683a67	-0.00088588
143	0xba0b7dc7	-0.00053211715
144	0xbc2f38b7	-0.010694674
145	0x3c7276f3	0.0147988675
146	0x3ca4e585	0.020128975
147	0x3c38b4db	0.011273588
148	0xbbcea5f5	-0.0063064047
149	0xbbc42ed6	-0.0059870286
150	0x3bb6c49d	0.0055776373
151	0xbbd65bf1	-0.006541722
152	0xbb70de42	-0.003675357
153	0xbc3505ae	-0.011048717
154	0x3a82fe84	0.0009994064
155	0xb9d69d51	-0.0004093447
156	0x3af9a520	0.0019046403
157	0x3bb2b313	0.005453476
158	0xbc07c784	-0.008287314
159	0xbcf9d120	-0.030495226
160	0x3c0ad29d	0.008473066
161	0xbba11455	-0.004915754
162	0xbb430ad5	-0.0029761095
163	0x3bee5a84	0.007273974
164	0xbc698d78	-0.01425492
165	0x3c8255cb	0.01591005
166	0x3c35ae8f	0.011088981
167	0xbb9a60de	-0.0047112545
168	0xbbd83cc7	-0.006599042
169	0xbb25e133	-0.002531123
170	0xbb925fec	-0.004467001
171	0xbc95390a	-0.018215675
172	0xbb9193d0	-0.0044426695
173	0xbac43b84	-0.001497135
174	0x3aa80600	0.0012819171
175	0x38cdb06c	9.808023e-05
176	0x3c41bc2d	0.01182465
177	0x3bbb81b5	0.0057222494
178	0xb9ec71fa	-0.00045098347
179	0x39c1a563	0.0003693505
180	0x38341295	4.293265e-05
181	0xb5ab6e0c	-1.2772521e-06
182	0x395d1600	0.00021084398
183	0xbb662c88	-0.0035121758
184	0x3b8c9c83	0.0042911186
185	0x3cd4a7e2	0.025958959
186	0x3c8dc320	0.017304957
187	0xbbcc4402	-0.006233693
188	0xbd0ea8de	-0.034829013
189	0x3aa15e5a	0.0012311444
190	0x3ad7fc3b	0.0016478369
191	0x3b2dee40	0.0026539713
192	0x3b5147ee	0.0031933743
193	0xbc52ecf1	-0.012873874
194	0xbcb12a84	-0.021626718
195	0xbc82f6ca	-0.015986819
196	0xbaa84363	-0.0012837466
197	0xba4a454f	-0.0007716016
198	0x3b300317	0.002685731
199	0xbc56ba6a	-0.013105968
200	0xb970c07c	-0.0002295989
201	0x3c66662e	0.0140624475
202	0xb924a85c	-0.00015702978
203	0x395a73e2	0.0002083327
204	0x396fe8e7	0.00022879579
205	0x3b4dac33	0.0031383156
206	0xbbab35ae	-0.005224905
207	0xbbd1022e	-0.0063784337
208	0x3a9dbcc8	0.0012034411
209	0x3d1c4b3f	0.038157698
210	0xbb06cfb4	-0.0020570578
211	0xba006ae9	-0.00048987434
212	0x39444fa7	0.0001872169
213	0xb9fece24	-0.00048600242
214	0x39ab3162	0.00032652455
215	0xbc0c20a3	-0.008552703
216	0x3bd33f1d	0.0064467327
217	0x3c58c28c	0.013229977
218	0xbbadce7f	-0.0053041573
219	0x3b3dc9ff	0.002895951
220	0x3b7e21da	0.0038777501
221	0x3a351cfa	0.000690892
222	0x3a86499d	0.0010245327
223	0x3b2166e1	0.002462797
224	0x3b093126	0.0020933836
225	0x3c30c057	0.010788045
226	0x3943e692	0.00018682543
227	0xbacbcac3	-0.0015548099
228	0xb90d0832	-0.00013449861
229	0xbb8c74a1	-0.004286364
230	0xbc7fbeeb	-0.015609483
231	0x3b55900c	0.003258708
232	0x3cdef2e0	0.027215421
233	0xb8e27903	-0.0001079906
234	0x3bcf06f7	0.006317969
235	0xbc4a1333	-0.012333679
236	0xba6d3e26	-0.00090500934
237	0xa9536241	-4.6936633e-14
238	0xbb9d5311	-0.004801162
239	0xb8c05538	-9.171147e-05
240	0xbc36cbb7	-0.011156968
241	0xbb72daaa	-0.0037056603
242	0x3be7a74d	0.0070695044
243	0xbad67773	-0.0016362503
244	0x3c944c51	0.018102797
245	0x3ab57449	0.001384386
246	0xbbf611f8	-0.0075094663
247	0x3cd2abdf	0.02571672
248	0x3c32f48a	0.0109225605
249	0x3ad84b37	0.0016501908
250	0x39472915	0.00018993423
251	0x3c1a60b4	0.00942247
252	0xbc3ea14e	-0.011635138
253	0x383687f6	4.3518805e-05
254	0x38e2b4cd	0.000108101965
255	0xba106381	-0.00055079913

embedding_extractor.0.bias f4 [256]
0	0x318134e9	3.7604093e-09
1	0xb1ddb4e9	-6.4525136e-09
2	0xb291e77f	-1.6985494e-08
3	0x325a5d57	1.2710493e-08
4	0xb375f7a5	-5.726874e-08
5	0xb1c3aa6e	-5.6946226e-09
6	0x35f87abc	1.851316e-06
7	0x3299915b	1.7877644e-08
8	0x3115872e	2.1759194e-09
9	0x339419b7	6.8964646e-08
10	0x32d68e5d	2.4977618e-08
11	0x30ad5d68	1.2613954e-09
12	0xb2fd8f93	-2.9518366e-08
13	0xb10febaf	-2.094321e-09
14	0xb3322150	-4.1474152e-08
15	0xb272c72f	-1.4131543e-08
16	0xb32976bb	-3.9456364e-08
17	0xb2bc86cc	-2.1947379e-08
18	0xb38628f0	-6.247308e-08
19	0xb4a48685	-3.0645256e-07
20	0x31945c69	4.3178727e-09
21	0x3319848d	3.5743643e-08
22	0xb3478e8d	-4.6462947e-08
23	0x3406acc4	1.2542574e-07
24	0xb296a9d8	-1.7539534e-08
25	0x33cabb09	9.4403795e-08
26	0xb38dc96a	-6.602461e-08
27	0xb2aab3b5	-1.9872326e-08
28	0xb260c6be	-1.3083705e-08
29	0x30aaff90	1.2441763e-09
30	0x31fb481a	7.3132584e-09
31	0x3219e676	8.958173e-09
32	0x33689273	5.4149904e-08
33	0xb2a0ffae	-1.8742721e-08
34	0xb33d9ccd	-4.41476e-08
35	0x330205c2	3.027322e-08
36	0x331f49c5	3.7087165e-08
37	0xb21dc9f5	-9.1845225e-09
38	0xb14eb12c	-3.0077656e-09
39	0xb3cfb919	-9.672858e-08
40	0xb347b8e2	-4.6501448e-08
41	0x337bf61a	5.866432e-08
42	0x31830f46	3.814338e-09
43	0x2fc6f628	3.6190895e-10
44	0x31b21277	5.182581e-09
45	0x3308113e	3.168065e-08
46	0xb608f75d	-2.0409564e-06
47	0x3261d0b4	1.3144177e-08
48	0x338240b0	6.065363e-08
49	0xb22e7da8	-1.0156704e-08
50	0xb1dd7ad2	-6.4459096e-09
51	0xb2e32edd	-2.6447589e-08
52	0x342ecc3f	1.6279317e-07
53	0x32cf0038	2.4098071e-08
54	0xb3316575	-4.13033e-08
55	0x3203bd12	7.668193e-09
56	0x32669da9	1.342361e-08
57	0x33a58879	7.7082355e-08
58	0x32984ff6	1.7731491e-08
59	0xb30f9f7b	-3.343983e-08
60	0xb39fb1bc	-7.436344e-08
61	0xb294c4bf	-1.7318937e-08
62	0xb260f6b0	-1.3094606e-08
63	0xb2e48967	-2.6605177e-08
64	0xb45fbcfb	-2.0837244e-07
65	0x3021a9cc	5.8812755e-10
66	0xb17d4168	-3.6853525e-09
67	0xb32163c7	-3.757648e-08
68	0xb3426824	-4.526386e-08
69	0xb4a1154e	-3.0004088e-07
70	0xb293b8bc	-1.719706e-08
71	0xb2a2c312	-1.894799e-08
72	0xb176cf4a	-3.5915542e-09
73	0x3378ef16	5.7959447e-08
74	0x31386c4e	2.6837088e-09
75	0xb270cc34	-1.4016269e-08
76	0xb3002616	-2.983696e-08
77	0xb2deaedb	-2.5923717e-08
78	0x32860078	1.5599866e-08
79	0xb3eb9867	-1.0970762e-07
80	0x3303536e	3.0576693e-08
81	0x328acec0	1.6159333e-08
82	0xb357a487	-5.0208225e-08
83	0xb3738992	-5.6702966e-08
84	0x330847d9	3.1730313e-08
85	0xb2ea621c	-2.72858e-08
86	0xb31af21a	-3.607611e-08
87	0x30f21532	1.7613841e-09
88	0xb077958a	-9.0070584e-10
89	0x32c5c68e	2.302411e-08
90	0xb389c067	-6.4145574e-08
91	0x328c0d57	1.6304211e-08
92	0x337e8ae6	5.926531e-08
93	0xb417441b	-1.4087748e-07
94	0xb36ff172	-5.5866117e-08
95	0x32800073	1.4901365e-08
96	0x337964ba	5.806644e-08
97	0xb307d9e8	-3.163032e-08
98	0x30cda158	1.496157e-09
99	0xb041b30c	-7.046743e-10
100	0x31432c3a	2.8401375e-09
101	0xb37b22fd	-5.8472313e-08
102	0xb2b33260	-2.086125e-08
103	0xb28a60cd	-1.6109334e-08
104	0xb31a3976	-3.590818e-08
105	0xb1ef3b86	-6.9625825e-09
106	0x3295d272	1.7441582e-08
107	0x32582352	1.2580886e-08
108	0xb37e48d4	-5.920522e-08
109	0xaf8f0602	-2.6015817e-10
110	0xaec6b650	-9.036383e-11
111	0xb2dd9b51	-2.5798416e-08
112	0x335ae88e	5.0968588e-08
113	0xb2d24d5b	-2.4482395e-08
114	0x33e62c88	1.071831e-07
115	0x33237024	3.8053386e-08
116	0xb1e7ba52	-6.744167e-09
117	0x33630474	5.2856606e-08
118	0x332a2057	3.9610622e-08
119	0x31dae408	6.370559e-09
120	0xb2f9876e	-2.9049001e-08
121	0xb1cb8050	-5.922665e-09
122	0xb1a70354	-4.860718e-09
123	0xb28908cd	-1.5952901e-08
124	0xb30c0440	-3.2600155e-08
125	0x331b3a73	3.614191e-08
126	0xb2e92bbe	-2.7144662e-08
127	0xb2960283	-1.746344e-08
128	0xb17db921	-3.692158e-09
129	0x3368fbdc	5.4245774e-08
130	0x3349683c	4.689376e-08
131	0x3209d2b8	8.022361e-09
132	0x332ef567	4.0735724e-08
133	0x3320d7fb	3.7449336e-08
134	0xb48aeb4a	-2.5875698e-07
135	0xb2a76aaa	-1.9489864e-08
136	0x31e356fe	6.6164594e-09
137	0x3389f33c	6.423804e-08
138	0xb3c52e8d	-9.181995e-08
139	0xb493dd19	-2.7541753e-07
140	0xb2657a0c	-1.3357305e-08
141	0xb2b495e5	-2.1022922e-08
142	0x32592d84	1.26414115e-08
143	0x33c9a076	9.3889795e-08
144	0x31973d25	4.4016297e-09
145	0xb4c4ceed	-3.6658403e-07
146	0xb13e996a	-2.7735845e-09
147	0x3436b269	1.7014976e-07
148	0x335ba1fa	5.1137228e-08
149	0x32b8d1f5	2.1515897e-08
150	0x32373a2a	1.0665227e-08
151	0xb363a2fe	-5.3000797e-08
152	0xb256ece2	-1.25103e-08
153	0xb28b021c	-1.6182689e-08
154	0xaf408008	-1.7507784e-10
155	0x32cc468a	2.3780803e-08
156	0x32a9c8b0	1.9765451e-08
157	0x3197b512	4.4152637e-09
158	0xb299f4dc	-1.7922893e-08
159	0x30ff9906	1.8597184e-09
160	0x324aef51	1.1812362e-08
161	0xb403c779	-1.2272893e-07
162	0xb2f5b178	-2.8602457e-08
163	0xb13b5d46	-2.7265101e-09
164	0x3296a7ab	1.7538545e-08
165	0x33bc6c0b	8.774085e-08
166	0xb1d78eb2	-6.273546e-09
167	0xb3261871	-3.8672116e-08
168	0x315b1c91	3.1884932e-09
169	0x3329490c	3.9414815e-08
170	0xb29ca55a	-1.8235983e-08
171	0xb2b984a0	-2.1597145e-08
172	0xb26eba5a	-1.3895795e-08
173	0xb252c574	-1.2268504e-08
174	0x32c0db11	2.2451362e-08
175	0x33596624	5.0617146e-08
176	0xb2fa1ee8	-2.9117885e-08
177	0x32fe7e06	2.96268e-08
178	0x325dfa83	1.2920853e-08
179	0xb379f717	-5.8199557e-08
180	0x32e91443	2.7133984e-08
181	0xb3aa5b0e	-7.9328046e-08
182	0x314d306e	2.9858955e-09
183	0x32b83e6f	2.144881e-08
184	0x2fb848c0	3.3521097e-10
185	0xb5324086	-6.640406e-07
186	0xb1c8c670	-5.843326e-09
187	0x318651be	3.9092063e-09
188	0xb2f3bbe5	-2.8374368e-08
189	0x32f97074	2.9038553e-08
190	0xb39e7df8	-7.380362e-08
191	0x331f7ba3	3.713252e-08
192	0xb2fcefd9	-2.9445731e-08
193	0xb29ab89e	-1.8011914e-08
194	0x33294dcd	3.9419138e-08
195	0x32c33dff	2.272918e-08
196	0xb221d163	-9.419042e-09
197	0x31365622	2.6533447e-09
198	0xb4556524	-1.9873966e-07
199	0x31fc72f2	7.347233e-09
200	0xb24f46f6	-1.20651205e-08
201	0x31d62a26	6.2330114e-09
202	0xb1e6f22c	-6.7214128e-09
203	0xb2514fbb	-1.218353e-08
204	0xb06ead5e	-8.6830265e-10
205	0xb2bbac20	-2.1847939e-08
206	0xb379dbea	-5.817484e-08
207	0x34871f34	2.5168413e-07
208	0xb26c7cd2	-1.3765389e-08
209	0xb2b5adb8	-2.1150171e-08
210	0xb3b61762	-8.479289e-08
211	0x3245c874	1.1512487e-08
212	0x32806b5f	1.4949988e-08
213	0xb17936a4	-3.6265329e-09
214	0x31b1610b	5.1624105e-09
215	0xb309ebd9	-3.21123e-08
216	0xb1139214	-2.1474351e-09
217	0x320c819c	8.178542e-09
218	0x3172afc7	3.5315553e-09
219	0xb2ef6749	-2.787023e-08
220	0xb36c26a8	-5.498319e-08
221	0x328179bb	1.5072933e-08
222	0xb1dfe407	-6.516078e-09
223	0xb2e1c774	-2.6284148e-08
224	0xb13afb36	-2.720936e-09
225	0x3297bd25	1.7664727e-08
226	0xb233f4e0	-1.0474849e-08
227	0x318dc080	4.125525e-09
228	0xb395a38b	-6.9681015e-08
229	0x32c08290	2.2411115e-08
230	0x31ad190a	5.0378093e-09
231	0x338532e3	6.2025514e-08
232	0xb292ffa4	-1.7112889e-08
233	0x3082f886	9.52938e-10
234	0xb342e97b	-4.5381494e-08
235	0x33830af5	6.102156e-08
236	0xb3c5d371	-9.211988e-08
237	0xb2266042	-9.684358e-09
238	0xb1955b23	-4.346832e-09
239	0xb37ede69	-5.9341264e-08
240	0x33446529	4.572681e-08
241	0xb29d7eb9	-1.8334832e-08
242	0x31d79eef	6.275392e-09
243	0x3445b325	1.8412227e-07
244	0x335924d8	5.055776e-08
245	0xb2258791	-9.635088e-09
246	0x32a2158a	1.8869077e-08
247	0xb2bfc519	-2.2324956e-08
248	0x32c1ab48	2.2546047e-08
249	0x33055dc1	3.1051744e-08
250	0xb2b3fab4	-2.095235e-08
251	0xb188d6e0	-3.9825494e-09
252	0xb2a4b20a	-1.9173076e-08
253	0x31379492	2.6714457e-09
254	0xb284a7f8	-1.5443206e-08
255	0xb2cf033c	-2.4099442e-08

embedding_extractor.1.weight f4 [256]
0	0x3f46f4f9	0.7771755
1	0x3f47dbbe	0.78069675
2	0x3f47bdf7	0.7802424
3	0x3f470f7b	0.77757996
4	0x3f475d5f	0.7787685
5	0x3f475f80	0.77880096
6	0x3f472e50	0.7780504
7	0x3f478eae	0.77952087
8	0x3f477a17	0.7792067
9	0x3f47a7f1	0.77990633
10	0x3f47d8a5	0.7806495
11	0x3f47320d	0.77810746
12	0x3f476d11	0.779008
13	0x3f479b87	0.7797169
14	0x3f47649b	0.77887887
15	0x3f477889	0.779183
16	0x3f473893	0.778207
17	0x3f478929	0.77943665
18	0x3f47ec2b	0.7809474
19	0x3f475780	0.7786789
20	0x3f478840	0.77942276
21	0x3f486977	0.78285927
22	0x3f46f2f1	0.7771445
23	0x3f473bbd	0.7782553
24	0x3f473e48	0.7782941
25	0x3f473abc	0.77823997
26	0x3f473888	0.77820635
27	0x3f46cca2	0.77655995
28	0x3f472fac	0.77807117
29	0x3f480c14	0.7814343
30	0x3f479203	0.7795717
31	0x3f477f6c	0.77928805
32	0x3f475794	0.7786801
33	0x3f47aaab	0.77994794
34	0x3f476251	0.77884394
35	0x3f471d39	0.77778965
36	0x3f476844	0.7789347
37	0x3f47634e	0.778859
38	0x3f47687a	0.77893794
39	0x3f470460	0.7774105
40	0x3f4807ae	0.7813672
41	0x3f477cd5	0.77924854
42	0x3f484c08	0.78241014
43	0x3f472ef7	0.7780604
44	0x3f4749e8	0.77847147
45	0x3f471acf	0.7777528
46	0x3f47de84	0.78073907
47	0x3f47931b	0.7795884
48	0x3f476171	0.7788306
49	0x3f47f40c	0.7810676
50	0x3f476c94	0.7790005
51	0x3f481c70	0.7816839
52	0x3f47dd45	0.78072006
53	0x3f483ca7	0.7821755
54	0x3f479e70	0.7797613
55	0x3f4716ae	0.7776898
56	0x3f47dfbc	0.78075767
57	0x3f4831a2	0.78200734
58	0x3f473e9c	0.7782991
59	0x3f4700ba	0.77735484
60	0x3f46e75e	0.7769679
61	0x3f47607a	0.77881587
62	0x3f4762b7	0.77885
63	0x3f47574f	0.778676
64	0x3f47392c	0.7782161
65	0x3f478ba0	0.77947426
66	0x3f47961b	0.7796342
67	0x3f46e299	0.7768951
68	0x3f4721d7	0.7778601
69	0x3f484530	0.7823057
70	0x3f47b00c	0.78003
71	0x3f489987	0.78359264
72	0x3f477a5e	0.7792109
73	0x3f46ed54	0.77705884
74	0x3f46b22d	0.77615625
75	0x3f486cc1	0.78290945
76	0x3f46ddb8	0.77682066
77	0x3f47a191	0.77980906
78	0x3f46fa54	0.7772572
79	0x3f479a64	0.77969956
80	0x3f4736c7	0.7781796
81	0x3f473478	0.77814436
82	0x3f4741a0	0.7783451
83	0x3f4852be	0.78251255
84	0x3f478f4e	0.7795304
85	0x3f4790f5	0.7795556
86	0x3f4768de	0.7789439
87	0x3f46ef4e	0.777089
88	0x3f470c24	0.777529
89	0x3f473cf8	0.77827406
90	0x3f472650	0.77792835
91	0x3f4746b3	0.77842253
92	0x3f471576	0.7776712
93	0x3f46e184	0.7768786
94	0x3f4705cc	0.7774322
95	0x3f47179c	0.777704
96	0x3f4750d8	0.7785773
97	0x3f479669	0.7796388
98	0x3f4727d9	0.7779518
99	0x3f474f5a	0.77855456
100	0x3f4757ac	0.7786815
101	0x3f473bdd	0.7782572
102	0x3f471843	0.77771395
103	0x3f471fa0	0.7778263
104	0x3f480b4d	0.78142244
105	0x3f479d47	0.7797436
106	0x3f46fb97	0.77727646
107	0x3f472e10	0.7780466
108	0x3f4788ad	0.77942926
109	0x3f47b12f	0.78004736
110	0x3f46f5d2	0.7771884
111	0x3f47e58f	0.78084654
112	0x3f479964	0.7796843
113	0x3f476567	0.778891
114	0x3f4843b7	0.78228325
115	0x3f47f476	0.7810739
116	0x3f46ea79	0.77701527
117	0x3f47b438	0.78009367
118	0x3f46f822	0.7772237
119	0x3f478537	0.77937645
120	0x3f478926	0.77943647
121	0x3f476d5f	0.7790126
122	0x3f47966d	0.77963907
123	0x3f4805b0	0.7813368
124	0x3f4741c0	0.778347
125	0x3f470f90	0.7775812
126	0x3f475ab1	0.7787276
127	0x3f4749c7	0.7784695
128	0x3f47ab50	0.7799578
129	0x3f475cd0	0.77875996
130	0x3f48705e	0.7829646
131	0x3f481951	0.7816363
132	0x3f47210b	0.77784795
133	0x3f482251	0.7817736
134	0x3f47be48	0.7802472
135	0x3f47ac50	0.77997303
136	0x3f4790b5	0.7795518
137	0x3f4857e4	0.7825911
138	0x3f4724ea	0.777907
139	0x3f47725b	0.7790887
140	0x3f47a0f0	0.77979946
141	0x3f472344	0.77788186
142	0x3f46cf56	0.7766012
143	0x3f475643	0.77866
144	0x3f468dfd	0.77560407
145	0x3f49c629	0.78817993
146	0x3f46c5d6	0.77645624
147	0x3f47703f	0.7790565
148	0x3f478494	0.77936673
149	0x3f473d66	0.7782806
150	0x3f4711d6	0.7776159
151	0x3f47a9d3	0.77993506
152	0x3f46e6d1	0.7769595
153	0x3f4741c1	0.7783471
154	0x3f47a5f5	0.77987605
155	0x3f474554	0.7784016
156	0x3f47a4c8	0.7798581
157	0x3f473526	0.77815473
158	0x3f473748	0.7781873
159	0x3f470db9	0.77755314
160	0x3f47ac19	0.77996975
161	0x3f478f78	0.7795329
162	0x3f47b267	0.78006595
163	0x3f47656b	0.77889127
164	0x3f47754c	0.77913356
165	0x3f46ca90	0.77652836
166	0x3f474d28	0.77852106
167	0x3f47afd7	0.78002685
168	0x3f4762cd	0.77885133
169	0x3f4713ce	0.77764595
170	0x3f4768cc	0.7789428
171	0x3f475e45	0.7787822
172	0x3f46f763	0.7772123
173	0x3f475bf8	0.7787471
174	0x3f479d2b	0.77974194
175	0x3f475b06	0.77873266
176	0x3f47662c	0.77890277
177	0x3f47e7d3	0.7808811
178	0x3f471448	0.7776532
179	0x3f482945	0.7818797
180	0x3f46a581	0.7759629
181	0x3f478013	0.779298
182	0x3f47b810	0.7801523
183	0x3f4804fe	0.7813262
184	0x3f47610a	0.77882445
185	0x3f4791a2	0.77956593
186	0x3f472093	0.7778408
187	0x3f46faa4	0.777262
188	0x3f4736b6	0.7781786
189	0x3f470d76	0.77754915
190	0x3f47c65c	0.7803705
191	0x3f486256	0.7827505
192	0x3f470dfe	0.77755725
193	0x3f47cb25	0.7804435
194	0x3f476dde	0.7790202
195	0x3f468f3a	0.77562296
196	0x3f46fabb	0.77726334
197	0x3f4800bf	0.7812614
198	0x3f4747c8	0.77843904
199	0x3f47fe75	0.78122646
200	0x3f47406e	0.77832687
201	0x3f474422	0.7783834
202	0x3f472a3f	0.7779884
203	0x3f4786b5	0.7793992
204	0x3f475fad	0.77880365
205	0x3f478428	0.7793603
206	0x3f4731df	0.7781047
207	0x3f47db7e	0.78069293
208	0x3f472711	0.77793986
209	0x3f47539f	0.7786197
210	0x3f47bdd3	0.78024024
211	0x3f46c73f	0.77647775
212	0x3f477dee	0.7792653
213	0x3f46ee6d	0.7770756
214	0x3f472fea	0.77807486
215	0x3f4761eb	0.77883786
216	0x3f483581	0.7820664
217	0x3f474ba6	0.77849805
218	0x3f472c64	0.7780211
219	0x3f4734e4	0.7781508
220	0x3f499a2c	0.7875087
221	0x3f472409	0.7778936
222	0x3f47747a	0.77912104
223	0x3f46e54e	0.7769364
224	0x3f4776a4	0.77915406
225	0x3f46c77b	0.77648133
226	0x3f46f440	0.77716446
227	0x3f474851	0.7784472
228	0x3f48162a	0.7815882
229	0x3f476440	0.77887344
230	0x3f4747a6	0.778437
231	0x3f47134f	0.7776384
232	0x3f478b42	0.77946866
233	0x3f46ae3a	0.776096
234	0x3f471df3	0.77780074
235	0x3f4818d9	0.78162915
236	0x3f4738c1	0.77820975
237	0x3f475fef	0.7788076
238	0x3f46f7da	0.7772194
239	0x3f474d7f	0.77852625
240	0x3f475ccc	0.7787597
241	0x3f478880	0.7794266
242	0x3f47318c	0.7780998
243	0x3f477a98	0.7792144
244	0x3f47b7b1	0.78014666
245	0x3f46ec5c	0.77704406
246	0x3f4741d4	0.7783482
247	0x3f46f7a3	0.77721614
248	0x3f472579	0.77791554
249	0x3f4981ff	0.78713983
250	0x3f48b924	0.784075
251	0x3f471641	0.7776833
252	0x3f46fde5	0.7773116
253	0x3f4787a1	0.7794133
254	0x3f481642	0.7815896
255	0x3f471b1d	0.77775747

embedding_extractor.1.bias f4 [256]
0	0xbba8cbfe	-0.005151271
1	0xb99e2d69	-0.00030169942
2	0x3b36ed52	0.002791245
3	0x3a16b55b	0.000574907
4	0xb9946149	-0.00028301243
5	0xba459f1c	-0.0007538663
6	0xba7e1f1e	-0.0009693968
7	0x3b3ae6f1	0.0028519
8	0x3b54a25f	0.0032445414
9	0xbc148c62	-0.009066673
10	0xbb84bed7	-0.00405107
11	0xbc01c265	-0.007919882
12	0x379496e0	1.7713232e-05
13	0xbb723f19	-0.0036963879
14	0xbaeb9034	-0.0017972053
15	0xbbbee71f	-0.0058258916
16	0xbb853b04	-0.004065873
17	0xba83188d	-0.0010001824
18	0xbc3d81f4	-0.011566628
19	0xbb17d1a5	-0.002316573
20	0xbaa72e35	-0.001275486
21	0xbc2f36c8	-0.010694213
22	0xbb8ec4c6	-0.0043569533
23	0xbace106d	-0.0015721448
24	0xbb670563	-0.0035251013
25	0xbb492559	-0.0030692427
26	0xbb39fed9	-0.002838066
27	0xbae73626	-0.0017640039
28	0xbb2b3ed8	-0.0026129987
29	0xbb35ada4	-0.0027721906
30	0xbb34e53e	-0.002760246
31	0x3b1814a2	0.0023205657
32	0xbb973705	-0.004614713
33	0xbb029eea	-0.0019931146
34	0x3abd3077	0.0014433999
35	0x3aba329a	0.0014205754
36	0x3b24b7fa	0.0025134073
37	0xbb90100c	-0.004396444
38	0xbafce07e	-0.0019292978
39	0xbb82569f	-0.003977611
40	0xbc43e038	-0.011955313
41	0xbb0feaa0	-0.0021959916
42	0xbb459c79	-0.003015308
43	0xbb14b533	-0.002269101
44	0x398ba2d6	0.00026633468
45	0xbb3ec6e9	-0.002911026
46	0xbbae6d51	-0.00532309
47	0xbb8d9667	-0.004320908
48	0xbae25c78	-0.001726999
49	0xbb1944c2	-0.002338693
50	0xb9ffa873	-0.00048762895
51	0x3a980396	0.0011597748
52	0xbb177ddf	-0.0023115797
53	0xbbee4d1e	-0.0072723767
54	0x3a26d787	0.00063645135
55	0xbbccc495	-0.0062490203
56	0xba9d46b3	-0.001199922
57	0xbb9dc554	-0.004814783
58	0xbc03c230	-0.008041903
59	0xbc005a3e	-0.007834015
60	0xbb89de77	-0.004207428
61	0xbb4bd8d2	-0.0031104577
62	0xbb11a2e6	-0.002222234
63	0xbb7b3c60	-0.0038335547
64	0xbaee66b9	-0.0018188573
65	0xbb0b48b8	-0.002125306
66	0xbb1c4423	-0.0023844324
67	0xbb089583	-0.002084107
68	0x39c53c8c	0.0003761988
69	0xbbc0d2f8	-0.0058845244
70	0xbaa84f90	-0.0012841094
71	0xbba5a952	-0.005055585
72	0xba52ff41	-0.00080489
73	0xbb445f4d	-0.002996403
74	0xbbb8ff14	-0.005645642
75	0xb9ac21b2	-0.000328315
76	0xba4562af	-0.00075296586
77	0xbbb753e3	-0.005594717
78	0x3a4f5415	0.00079089525
79	0xbbfe275e	-0.007756158
80	0x3b2bbb1d	0.0026204058
81	0xbbd04521	-0.006355897
82	0xbaf86cd6	-0.0018953334
83	0xbafec3f5	-0.0019437062
84	0xbb947fa4	-0.0045318175
85	0xbbebb502	-0.0071932087
86	0xbb1ee21c	-0.0024243658
87	0xbb99848e	-0.004684991
88	0x3992ddeb	0.00028012632
89	0xbae5a0c1	-0.0017519222
90	0xba5f1ac8	-0.00085107656
91	0x3be5a120	0.007007733
92	0xbbdf76e4	-0.006819593
93	0xbbb74301	-0.0055927043
94	0x3a0d7828	0.0005396628
95	0x3aeacd58	0.001791398
96	0xbb06c3f0	-0.0020563565
97	0xba1c955d	-0.00059731846
98	0xbb819887	-0.0039549503
99	0x3aeaebd4	0.0017923065
100	0xba155365	-0.00056963257
101	0xbbc426a6	-0.0059860526
102	0xbbd7580c	-0.0065717753
103	0xba1b49a6	-0.0005923755
104	0xbc4100aa	-0.0117799435
105	0xbb0dad90	-0.0021618344
106	0xbb83bbf5	-0.004020209
107	0x3a880371	0.0010377002
108	0x3b366a67	0.0027834417
109	0xbb590f73	-0.003312078
110	0x3a138c68	0.0005628527
111	0xbaeda64a	-0.0018131223
112	0xbbf0acda	-0.0073448243
113	0xbbb03665	-0.005377578
114	0xbbd03014	-0.0063533876
115	0xbb61b2a6	-0.0034438758
116	0xbaffdea7	-0.0019521312
117	0xba8027d2	-0.0009777492
118	0x3adad38c	0.0016695126
119	0xbbfd10ef	-0.007722966
120	0xbb914e2e	-0.0044343686
121	0xbae8cb8b	-0.0017760856
122	0xbb9c010e	-0.004760868
123	0xba36a25d	-0.0006966943
124	0xbbb68145	-0.0055696093
125	0x38aa4ca6	8.1205086e-05
126	0x381e0fe8	3.768495e-05
127	0xb961d620	-0.0002153744
128	0xbb96dc9b	-0.004603935
129	0xbb522a6f	-0.003206875
130	0x3a87d179	0.001036211
131	0xbb2d95e6	-0.0026487052
132	0x3a64d2d9	0.00087289285
133	0x3a56729b	0.00081805297
134	0xbb2a941e	-0.0026028226
135	0xbb7fb703	-0.0039018996
136	0xbb830751	-0.003998675
137	0xba20b1cd	-0.000613001
138	0xbc1541cb	-0.009109925
139	0xbba285a1	-0.0049597775
140	0x3a573a71	0.00082103076
141	0xbbc4882f	-0.0059976797
142	0xba9dea45	-0.0012047967
143	0xba832f95	-0.0010008687
144	0xbac6e297	-0.001517373
145	0x3b91d57d	0.0044504986
146	0x3b91d8f9	0.004450914
147	0xbbe4ae5b	-0.0069787926
148	0xba8cd7c0	-0.0010745451
149	0xbb07335c	-0.0020629978
150	0xbb2f0720	-0.0026707128
151	0xbb6f0aec	-0.0036475016
152	0xbb4ecd39	-0.0031555428
153	0xbbc4a98c	-0.006001657
154	0x3ba5a166	0.0050546406
155	0xb9b29868	-0.00034064357
156	0xbb8a210f	-0.0042153667
157	0x3adae938	0.0016701585
158	0xba957289	-0.0011401932
159	0xbb6a76d0	-0.0035776384
160	0x3aad694d	0.0013230235
161	0xbb9f00f0	-0.0048524067
162	0xbb8459cd	-0.0040390254
163	0xb9010d90	-0.00012307451
164	0xbaf05162	-0.0018334801
165	0x3b258b26	0.002525994
166	0x38454dad	4.70408e-05
167	0x3bc782ac	0.0060885753
168	0xbbb9dc6c	-0.0056720283
169	0xbb3842ba	-0.0028115944
170	0x3bb000a4	0.00537117
171	0xbaa76d14	-0.0012773597
172	0xbc07436c	-0.008255821
173	0x3b614eae	0.0034379172
174	0xbb5aa194	-0.0033360468
175	0xbb0815b3	-0.0020764887
176	0x3a82456a	0.00099389
177	0x398de6ba	0.0002706552
178	0xbb804213	-0.0039141267
179	0xba28e66a	-0.0006443026
180	0xbb05c11a	-0.0020409287
181	0xbb5c6104	-0.0033627162
182	0xbc06abb5	-0.008219649
183	0xbb61cebe	-0.0034455503
184	0x3a22c036	0.0006208451
185	0x3a82ff30	0.0009994265
186	0x36e30590	6.7657747e-06
187	0xbb9b5415	-0.004740248
188	0xbb491bce	-0.003068674
189	0xbb77552a	-0.003773997
190	0xbae771d1	-0.0017657821
191	0x3b0ef4a8	0.0021813307
192	0xbb6198f5	-0.0034423445
193	0xbb2d2e8f	-0.0026425456
194	0xbb35f912	-0.0027766866
195	0x3b680215	0.0035401632
196	0xbb8b0c0c	-0.0042433795
197	0xb936af09	-0.00017422078
198	0xbba9bc19	-0.0051798937
199	0xbba86fd0	-0.005140282
200	0xbb1fcaf1	-0.0024382437
201	0xbb82288e	-0.0039721197
202	0xbb0e8798	-0.00217483
203	0x38b8460c	8.786851e-05
204	0x3a2400cd	0.0006256223
205	0xbbaa7947	-0.0052024457
206	0xbbcf9737	-0.006335165
207	0xbbbd2b65	-0.0057729953
208	0xba5130df	-0.00079799996
209	0xbb2fa70c	-0.0026802449
210	0xbb84669f	-0.0040405537
211	0xbb0538f9	-0.0020328148
212	0xbb8ffbc9	-0.004394029
213	0xb9e743b4	-0.00044110196
214	0xbbb0113b	-0.005373148
215	0xbb03a7b3	-0.002008897
216	0xbbf16088	-0.0073662437
217	0xbb142cd0	-0.0022609718
218	0xbb9d4089	-0.004798953
219	0x38ed839e	0.00011325556
220	0xbbb3c952	-0.0054866457
221	0xbb54c28a	-0.0032464587
222	0x3b19f56a	0.0023492225
223	0xba0e8673	-0.00054369046
224	0x38d6f0f2	0.00010249195
225	0xbba624b6	-0.0050702943
226	0x3b6efd94	0.0036467062
227	0xbb353518	-0.0027650055
228	0x392e17ad	0.00016602753
229	0xb9e714b6	-0.00044075184
230	0xb955283b	-0.0002032825
231	0xbbfb4a86	-0.007668796
232	0xb9c40612	-0.00037388556
233	0xbc438fc8	-0.011936136
234	0xbb88a704	-0.0041703004
235	0x3a53fc9b	0.00080866524
236	0xba9e14a3	-0.0012060594
237	0xbac6c979	-0.0015166245
238	0xbb3ffb72	-0.002929416
239	0x3b5b243e	0.003343835
240	0x3a527689	0.00080285274
241	0xbb7b80b9	-0.0038376285
242	0xb914bd83	-0.00014184978
243	0xba57c122	-0.0008230378
244	0x3a8b413c	0.00106243
245	0xbb2a7dbb	-0.0026014883
246	0xbb7dbd7f	-0.0038717685
247	0xbbd755d0	-0.006571509
248	0x3b065118	0.0020495113
249	0xbb4c8392	-0.0031206352
250	0xbb9df10b	-0.0048199943
251	0x3a8ff510	0.0010983068
252	0xbb732d6c	-0.003710593
253	0xbb2fa9d0	-0.0026804097
254	0xbb141ae4	-0.0022599036
255	0xbc0428c2	-0.008066358

embedding_extractor.1.running_mean f4 [256]
0	0xbd1e95e6	-0.038717173
1	0x3d96bd82	0.073603645
2	0xbd656de0	-0.056012988
3	0x3d438433	0.047733497
4	0x3cb7ee92	0.022452626
5	0x3d5b5b15	0.05355366
6	0xbd83e728	-0.06440574
7	0x3ddea648	0.108715594
8	0x3da65545	0.081217326
9	0x3cfb72be	0.030694362
10	0xbd98fca8	-0.07470065
11	0x3d24ff4f	0.040282544
12	0x3d23b2ac	0.039965317
13	0xbc7c5142	-0.015400233
14	0x3d6c7a1e	0.057733648
15	0xbcec67d4	-0.028858103
16	0x3cfb0b16	0.030644935
17	0xbd2bd63e	-0.041952364
18	0x3d809dc0	0.062800884
19	0xbd20524b	-0.03914098
20	0x3b9976c8	0.0046833493
21	0xbd235577	-0.039876428
22	0xbc80ec8a	-0.01573779
23	0xbc69bed3	-0.014266687
24	0x3d82e941	0.06392146
25	0x3d10ff59	0.03539977
26	0x3a9fc836	0.0012190405
27	0xbcdc7812	-0.026912723
28	0xbc089955	-0.008337338
29	0xbc19173b	-0.0093439175
30	0x3ca77f0f	0.020446328
31	0x3ced434c	0.028962754
32	0xbd2ac317	-0.04168996
33	0xbd8a1d5c	-0.06743881
34	0xbda1b1fb	-0.07895275
35	0x3c4b732f	0.012417599
36	0xbd2b12e7	-0.041766074
37	0xbd2c538f	-0.042071875
38	0x3d4374ca	0.0477188
39	0xbdae9c01	-0.08525849
40	0x3cdffa1e	0.027340945
41	0xbd4c6aa4	-0.049906388
42	0xbcd15944	-0.02555526
43	0xbce650b1	-0.028114649
44	0x3c5206c5	0.012818997
45	0x3b8a0ff7	0.004213329
46	0xbd1dee56	-0.038557373
47	0xbd0bede2	-0.03416241
48	0x3d8ef7b8	0.06980842
49	0xbbf714b4	-0.00754031
50	0x3d5010f1	0.050797407
51	0x3d90f620	0.070781946
52	0x3caa83d6	0.020814817
53	0x3c83bcc4	0.016081221
54	0xbb62650f	-0.00345451
55	0x3cbbd3ae	0.022928085
56	0x3d4f25bc	0.050573096
57	0x3e021256	0.12702307
58	0x3d62c378	0.055362195
59	0x3c93e1c5	0.018051991
60	0xbc023646	-0.00794751
61	0x3d6a41f4	0.057191804
62	0x3cb6135e	0.022226032
63	0x3c96221e	0.018326815
64	0xbc4c73f8	-0.012478821
65	0x3a8c5a42	0.0010708051
66	0xbcfd23f9	-0.030900942
67	0x3db3bc8d	0.087761976
68	0xbc58c1d0	-0.013229802
69	0x3c16e465	0.009209727
70	0x3ca3b40c	0.019983314
71	0x3dbd04f6	0.09229462
72	0x3d18ebf3	0.037334394
73	0xbcd4a6ad	-0.025958383
74	0x39d138a4	0.00039905787
75	0x3d27dfeb	0.04098503
76	0xbd24e408	-0.04025653
77	0x3ca070ec	0.019585095
78	0x3d9ac085	0.075562514
79	0x3d2a2f27	0.041548874
80	0x3ac0bed0	0.0014705304
81	0x3d23b16a	0.039964117
82	0x3c63c4b1	0.013901875
83	0x3dd925ad	0.10602889
84	0xbdb09ee3	-0.08624055
85	0x3d8b4a72	0.06801309
86	0x3d259aca	0.04043082
87	0x3c78e20e	0.015190614
88	0x3d1c2e39	0.03813002
89	0x3c64b059	0.01395806
90	0x3da1fd10	0.07909596
91	0xb9a06c76	-0.00030598388
92	0x3c7b64f7	0.015343896
93	0xbdc655a6	-0.09684305
94	0x3ca2e23e	0.019883271
95	0xbbdf9fba	-0.006824461
96	0xbccec5c3	-0.025240785
97	0x3c40b8e4	0.011762831
98	0x3d278821	0.040901307
99	0x3d4c20be	0.049835913
100	0xbbdc3ac2	-0.0067208717
101	0x3c87c116	0.016571563
102	0x3cae28c7	0.021259679
103	0xbe065906	-0.13119897
104	0xbc16d6b4	-0.009206463
105	0x3dc40268	0.095707715
106	0xbd8865d5	-0.06660048
107	0x3c7c7527	0.015408791
108	0x3cf3edaf	0.029776422
109	0x3c8197ec	0.015819512
110	0xbd95278b	-0.07282933
111	0xbdb00904	-0.085954696
112	0x3c7120c0	0.014717281
113	0xbd323547	-0.04350784
114	0x3d432068	0.047638327
115	0x3c4a03ec	0.012330037
116	0xbca415a7	-0.020029856
117	0x3bb531f5	0.005529637
118	0xbd6f602b	-0.058441322
119	0x3d2ff7d6	0.042960964
120	0xbc1231dd	-0.008923021
121	0xbcd4f751	-0.025996836
122	0xbb46a16d	-0.003030862
123	0x3b5547d2	0.003254403
124	0xbc4bf32e	-0.012448115
125	0xbc873fd7	-0.016509933
126	0x3be14087	0.0068741473
127	0x3d66d940	0.05635953
128	0xbd9a6abc	-0.07539889
129	0x3cebfa2c	0.028805815
130	0xbd949c30	-0.07256353
131	0xbc1bef19	-0.009517455
132	0xbcce2cdf	-0.02516788
133	0xbcb5aff5	-0.02217863
134	0x3d302ae9	0.043009672
135	0xbdcc744a	-0.09983118
136	0xbba926f2	-0.0051621133
137	0x3ddb38c1	0.10704184
138	0x3b811a96	0.003939937
139	0xbb70cc97	-0.0036743039
140	0x3d9c34c4	0.07627252
141	0xbda8b1ce	-0.082370386
142	0xbcdba363	-0.026811307
143	0x3bfe4865	0.007760095
144	0xbcf1d0b5	-0.029518465
145	0x3d8b2822	0.06794764
146	0xba630aa8	-0.00086609507
147	0x3c7920d7	0.015205584
148	0xbc6870e7	-0.014187074
149	0xbcc5eaa7	-0.024159743
150	0xbd4cfe3f	-0.050047155
151	0x3ccc0daa	0.02490886
152	0xbd1bc17a	-0.03802631
153	0x3d280bea	0.041026987
154	0x3d6dd2cf	0.05806237
155	0xbd7e8451	-0.062137906
156	0x3d5d0ab5	0.05396529
157	0xbce641d9	-0.02810757
158	0x3c50e8d7	0.012750826
159	0xbb29d58c	-0.0025914637
160	0x3d0d7988	0.03453973
161	0x3b812e3e	0.00394228
162	0x3d92e289	0.071721144
163	0xbda63fb4	-0.08117619
164	0xbd1b6547	-0.037938382
165	0x3b99f5ee	0.0046985066
166	0x3c3d0e41	0.011539043
167	0x3b6a065f	0.0035709364
168	0xbd5ff494	-0.054676607
169	0x3903f5b0	0.00012584659
170	0xbd972075	-0.073792376
171	0xbd2d371e	-0.042288892
172	0xbcc3ea20	-0.02391535
173	0x3d368702	0.044562347
174	0x3bc38ee1	0.00596796
175	0x3dbe75ba	0.09299798
176	0xbd6df634	-0.058096126
177	0x3e0237b6	0.12716565
178	0xbc394ec2	-0.011310281
179	0x3c3a87cc	0.011384916
180	0x3cfbe5ac	0.030749165
181	0xbd107cdc	-0.035275325
182	0x3d861485	0.065468825
183	0x3cc3565c	0.02384489
184	0xba9e476b	-0.0012075728
185	0xbcb8b1aa	-0.022545654
186	0x3ca74ff4	0.020423867
187	0x3d343898	0.043999285
188	0x3d2d6e18	0.04234132
189	0x3d36f658	0.044668525
190	0x3bb261d0	0.005443789
191	0xbaaf4a86	-0.001337365
192	0x3dd10e3e	0.102077946
193	0xbd7941a6	-0.060853623
194	0x3d71aa86	0.059000514
195	0xbd11f816	-0.035636984
196	0xbb31925c	-0.0027095294
197	0x3d76d757	0.060263958
198	0x3bc2558f	0.0059306095
199	0x3cbd246a	0.023088653
200	0x3d46a176	0.048493825
201	0xbcf836cb	-0.030299565
202	0x3d996d1f	0.07491516
203	0xbc2720ca	-0.010200689
204	0x3b1b1534	0.002366376
205	0x3d993502	0.074808136
206	0x3da8e88a	0.08247478
207	0x3ced94ae	0.02900156
208	0x3d228a8b	0.039682906
209	0xbd68dd0f	-0.056851443
210	0x3d947405	0.072486915
211	0xbd4b76e2	-0.049673922
212	0x3c801eb8	0.015639648
213	0x3c828e47	0.015936984
214	0xba129c86	-0.0005592782
215	0x3ccaec9a	0.024771024
216	0xbcc0d4d2	-0.02353898
217	0xbda7edc6	-0.081996486
218	0xbd8b294e	-0.067949876
219	0x3d0bf63d	0.034170378
220	0xbd28b477	-0.04118773
221	0xbc9a3969	-0.018826203
222	0xbcab7c70	-0.02093336
223	0x3d921741	0.071333416
224	0xbd0a7a9c	-0.033808336
225	0xbae22212	-0.0017252585
226	0xbd9cc11f	-0.076540224
227	0x3d726e68	0.059187323
228	0x3b6db6d9	0.0036272316
229	0xbc852e4b	-0.016257426
230	0xbd92059e	-0.07129978
231	0x3ba13643	0.0049197986
232	0x3da62e8e	0.08114348
233	0xbdc3be03	-0.09557726
234	0xbd1de63d	-0.03854965
235	0x3b967374	0.0045914
236	0xbd631261	-0.05543745
237	0xbd10e432	-0.035373874
238	0xbd3939a0	-0.04522097
239	0xbcfae3ca	-0.030626196
240	0x3c81bc1d	0.01583677
241	0x3d3e844f	0.046512898
242	0x3d543320	0.05180657
243	0x39f817b0	0.00047319895
244	0x3d8488c4	0.064713985
245	0xbcc15a52	-0.023602638
246	0x3cb62645	0.022235045
247	0xbcee53eb	-0.02909275
248	0xbd151615	-0.036398012
249	0xbd80f7f3	-0.062972926
250	0xbc89506a	-0.016761977
251	0x3ce391fb	0.02777957
252	0xbb966de8	-0.0045907386
253	0x3d4bc3ef	0.049747404
254	0xbd9f5e6f	-0.07781684
255	0x3cc0c8f0	0.023533314

embedding_extractor.1.running_var f4 [256]
0	0x3bd49616	0.006487618
1	0x3bfec8e9	0.007775415
2	0x3c1fcfbe	0.009754119
3	0x3b918d69	0.004441906
4	0x3bc6526d	0.0060523064
5	0x3bc87ef1	0.006118648
6	0x3bfa9671	0.0076473285
7	0x3b79d835	0.0038123254
8	0x3baf676a	0.005352904
9	0x3bd58246	0.006515774
10	0x3bd1b192	0.006399342
11	0x3bf50aa4	0.007478075
12	0x3bd3f504	0.006468417
13	0x3c0bef2a	0.008540908
14	0x3bb06781	0.0053834324
15	0x3c4f89cc	0.012667131
16	0x3c127c87	0.008940822
17	0x3bc60f07	0.006044272
18	0x3bb21d28	0.0054356046
19	0x3bef4f8d	0.0073031844
20	0x3c22503c	0.009906825
21	0x3bf2e47e	0.0074124923
22	0x3bab715c	0.0052320193
23	0x3bef9fc8	0.0073127486
24	0x3c14ab42	0.009074034
25	0x3b603824	0.003421315
26	0x3bed4f12	0.007242092
27	0x3c052652	0.008126812
28	0x3bf94440	0.007607013
29	0x3c689c7c	0.014197465
30	0x3bc29887	0.005938593
31	0x3bd6cd2e	0.006555221
32	0x3c0b7793	0.008512395
33	0x3bd08e43	0.006364615
34	0x3ba0edd8	0.0049111657
35	0x3bda635b	0.006664676
36	0x3bd24c86	0.0064178137
37	0x3c34c64a	0.011033604
38	0x3bad5f77	0.0052909213
39	0x3bd43c9d	0.006476952
40	0x3bbb6bdd	0.0057196454
41	0x3bcc996a	0.0062438743
42	0x3b9a316f	0.0047056
43	0x3c0aa02e	0.008461041
44	0x3c116bc1	0.008875788
45	0x3bf0948c	0.007341927
46	0x3c014b1f	0.007891445
47	0x3bc72376	0.0060772253
48	0x3c2c2a93	0.010508197
49	0x3bbebf2c	0.0058211293
50	0x3b749a30	0.0037323348
51	0x3b9441cb	0.0045244447
52	0x3c26433a	0.010147864
53	0x3c238af3	0.009981859
54	0x3beb24e1	0.007176027
55	0x3c04d4d6	0.008107385
56	0x3bd9df6f	0.00664895
57	0x3bc7827b	0.0060885525
58	0x3bee063e	0.0072639277
59	0x3be79df3	0.0070683896
60	0x3c011ecf	0.0078808805
61	0x3bac06af	0.00524982
62	0x3bbffc68	0.0058589466
63	0x3bde062a	0.006775637
64	0x3bc6a68f	0.006062336
65	0x3c0d27fe	0.008615492
66	0x3c376854	0.011194307
67	0x3b841719	0.004031074
68	0x3c16e483	0.009209755
69	0x3baef897	0.005339693
70	0x3c794379	0.015213841
71	0x3bc0f0bf	0.005888074
72	0x3bc22cc7	0.005925748
73	0x3bf216b1	0.007387959
74	0x3c21423c	0.009842452
75	0x3b6a0539	0.003570868
76	0x3bd4f652	0.00649909
77	0x3c38d6df	0.011281698
78	0x3c071f91	0.008247272
79	0x3be4f314	0.006986985
80	0x3b8378f5	0.004012222
81	0x3c0c216d	0.008552891
82	0x3bd545b1	0.006508552
83	0x3c30d602	0.010793211
84	0x3bd4321f	0.0064757015
85	0x3c187212	0.00930454
86	0x3bc45e1c	0.005992664
87	0x3ba8168e	0.005129642
88	0x3ba0d78d	0.004908508
89	0x3bdce8fc	0.006741641
90	0x3c119b7c	0.008887168
91	0x3c02b0c8	0.007976718
92	0x3c2e00e7	0.010620332
93	0x3b814117	0.003944527
94	0x3bbedf34	0.0058249477
95	0x3c26f145	0.010189359
96	0x3bf09ce2	0.0073429206
97	0x3bf3c7af	0.0074395756
98	0x3bfaadf4	0.0076501314
99	0x3bd749c3	0.0065700724
100	0x3bf7ef60	0.0075663775
101	0x3bdfbc7a	0.006827888
102	0x3c0454eb	0.008076887
103	0x3c17a717	0.009256146
104	0x3c23ce2b	0.009997885
105	0x3bc8433a	0.0061115297
106	0x3bf8dc70	0.0075946376
107	0x3bf381f5	0.0074312636
108	0x3c1171ad	0.0088772
109	0x3be6b7b1	0.0070409407
110	0x3c04739a	0.008084202
111	0x3ba6ee62	0.0050943354
112	0x3c02fa18	0.007994197
113	0x3be6d8ed	0.0070449025
114	0x3bd304e9	0.0064397943
115	0x3bc74f78	0.0060824715
116	0x3c201579	0.0097707445
117	0x3babb799	0.0052403924
118	0x3be60f12	0.0070208395
119	0x3c141163	0.009037348
120	0x3bddca2f	0.006768487
121	0x3bc53adb	0.006018979
122	0x3c2a57ce	0.010396911
123	0x3c04ddf4	0.008109558
124	0x3bcae77b	0.0061921454
125	0x3c0b677b	0.008508558
126	0x3c058e92	0.008151667
127	0x3c08e168	0.008354522
128	0x3baf390f	0.005347378
129	0x3c1ae9c2	0.009455146
130	0x3c41de44	0.011832777
131	0x3c1dc729	0.009630003
132	0x3c0188d5	0.007906158
133	0x3beb92e3	0.007189141
134	0x3c3a4c52	0.011370735
135	0x3c1151a0	0.008869559
136	0x3c0fd97e	0.0087798815
137	0x3bf53f39	0.0074843434
138	0x3c10c595	0.00883617
139	0x3c07d2a8	0.00828997
140	0x3bcfe26a	0.0063441293
141	0x3c15863b	0.009126241
142	0x3be2023d	0.0068972395
143	0x3c14cf74	0.009082664
144	0x3b9ea2dc	0.0048411917
145	0x3b82eebd	0.003995745
146	0x3bbef280	0.005827248
147	0x3c42baa6	0.011885321
148	0x3b4cfc32	0.003127825
149	0x3bf1bc9a	0.0073772194
150	0x3c05dc4b	0.008170198
151	0x3b95d486	0.004572454
152	0x3b97a693	0.0046280115
153	0x3bfa2ade	0.0076345047
154	0x3bcba3ea	0.0062146084
155	0x3bc310e0	0.0059529394
156	0x3c0fbf10	0.00877358
157	0x3c0a35d2	0.008435683
158	0x3bd4dd1b	0.0064960844
159	0x3b932524	0.0044905115
160	0x3c02bc64	0.007979486
161	0x3c29abd3	0.0103559075
162	0x3c28dd88	0.010306723
163	0x3bd8ac60	0.0066123456
164	0x3bc2ecb4	0.0059486274
165	0x3bee6d1e	0.0072761914
166	0x3be964c3	0.0071226074
167	0x3bd975a7	0.0066363397
168	0x3bf3d46d	0.0074410946
169	0x3b870391	0.004120298
170	0x3baea446	0.0053296415
171	0x3c141909	0.009039172
172	0x3bb2ae5f	0.0054529156
173	0x3bb4d248	0.0055182315
174	0x3ba6c213	0.0050890534
175	0x3be6d8f9	0.007044908
176	0x3bf3ee3e	0.007444172
177	0x3bc64a90	0.006051369
178	0x3be8589a	0.0070906403
179	0x3c21ef33	0.00988369
180	0x3bdb2da5	0.006688791
181	0x3c143289	0.009045252
182	0x3be4d802	0.006983758
183	0x3c413725	0.011792933
184	0x3bb8e508	0.005642537
185	0x3bc1f541	0.005919129
186	0x3b8bd108	0.004266862
187	0x3bdc2174	0.006717855
188	0x3b4e53cf	0.003148306
189	0x3bcbc8c8	0.0062190033
190	0x3baa360c	0.005194431
191	0x3b8321af	0.004001818
192	0x3c153b55	0.009108384
193	0x3c359259	0.011082255
194	0x3bef3fca	0.0073013054
195	0x3bfed967	0.007777381
196	0x3bed7c31	0.007247471
197	0x3bdfec8c	0.0068336185
198	0x3ba97dd5	0.005172471
199	0x3c07b5c5	0.008283083
200	0x3b8c93c4	0.004290076
201	0x3bd49a44	0.0064881165
202	0x3be537d7	0.006995182
203	0x3c0873d5	0.008328398
204	0x3bef4657	0.0073020863
205	0x3bc40a0e	0.005982644
206	0x3c0cb94e	0.008589102
207	0x3be8878e	0.0070962375
208	0x3baabebc	0.0052107256
209	0x3bfcc893	0.00771434
210	0x3bc7cd7a	0.0060974928
211	0x3befd1f4	0.0073187295
212	0x3c00539f	0.007832437
213	0x3bbbab12	0.0057271803
214	0x3c1f03b1	0.00970547
215	0x3b9b64cb	0.00474224
216	0x3bf0907f	0.007341444
217	0x3c039372	0.008030759
218	0x3b5b9b6a	0.0033509382
219	0x3bf51a40	0.007479936
220	0x3b583eda	0.0032996447
221	0x3bc2e2fe	0.0059474697
222	0x3c17ab13	0.009257096
223	0x3c016937	0.00789862
224	0x3bd47113	0.006483206
225	0x3bd91bc9	0.0066256267
226	0x3bb927a7	0.005650479
227	0x3bd02519	0.0063520786
228	0x3b955d0c	0.004558211
229	0x3c083a87	0.008314735
230	0x3be32410	0.006931789
231	0x3c091020	0.008365661
232	0x3bf7d6bc	0.00756344
233	0x3bfd9c83	0.007739605
234	0x3c0581b7	0.008148602
235	0x3bbbbaab	0.0057290397
236	0x3bf184fc	0.0073705893
237	0x3b8f9322	0.0043815533
238	0x3be538f1	0.0069953133
239	0x3bdea1c4	0.0067941863
240	0x3bffba85	0.0078042173
241	0x3ba6fcbf	0.0050960477
242	0x3c02a6f4	0.007974375
243	0x3c12e303	0.008965257
244	0x3b9a5aaf	0.0047105174
245	0x3c0ecc36	0.00871568
246	0x3b9c77e2	0.0047750333
247	0x3c05dd1a	0.0081703905
248	0x3b944e64	0.0045259465
249	0x3bf4eeb8	0.0074747466
250	0x3bce35d6	0.006293039
251	0x3bcfe42a	0.006344338
252	0x3bdf76b0	0.0068195686
253	0x3bf8e212	0.007595309
254	0x3c11a895	0.008890291
255	0x3c0108ea	0.00787566

embedding_extractor.4.weight f4 [128, 256]
0	0x3d138d6c	0.036023542
1	0xbccc7ff0	-0.02496335
2	0xbd2c481d	-0.04206096
3	0xbcc363cb	-0.023851296
4	0x3d1448b4	0.036202148
5	0xbc855746	-0.016276967
6	0x3cd8e50a	0.026476402
7	0x3c53a8b6	0.012918642
8	0xbb519164	-0.0031977529
9	0x3c9ec62f	0.01938161
10	0xbb8245cf	-0.003975607
11	0x3c8305c0	0.015993953
12	0x3d2bc709	0.04193786
13	0x3c65cd1e	0.0140259545
14	0x3ce5b441	0.028040053
15	0x3b993351	0.004675307
16	0x3d122217	0.03567704
17	0x3d08b435	0.033374984
18	0xbcf1909e	-0.029487904
19	0xbbc5ad5b	-0.0060326285
20	0x3be1716e	0.006879977
21	0x3b2e4184	0.0026589343
22	0x3c537275	0.012905707
23	0xbd08e62a	-0.033422627
24	0x3ccb89c4	0.024845965
25	0x3c5de063	0.0135422675
26	0xbd1f86a0	-0.038946748
27	0x3c5254e2	0.01283762
28	0x3cb2ad65	0.021811197
29	0xbc11000d	-0.00885011
30	0xbc8d8d98	-0.017279431
31	0x3c85f4b6	0.016352039
32	0xbc5da0be	-0.013527093
33	0x3cd379e7	0.025814964
34	0x3ccbeab6	0.024892192
35	0x3c4414b4	0.011967827
36	0xbcc65657	-0.024211092
37	0x3c2b5438	0.010457091
38	0xbc4e1b1f	-0.012579708
39	0xbc9b4688	-0.01895453
40	0x3c096bf6	0.008387556
41	0x3cbcd440	0.023050427
42	0x3d321f8d	0.04348712
43	0x3c3d7c61	0.011565299
44	0xbcbeda65	-0.023297498
45	0xbcc1a0b6	-0.023636203
46	0xb89a2402	-7.349999e-05
47	0xbd208c8c	-0.039196536
48	0x3c9a36ed	0.018825019
49	0x3cc61684	0.024180658
50	0xbd09eacb	-0.03367118
51	0x3cf84a8d	0.030308986
52	0xbd4042cb	-0.0469387
53	0xbd03a522	-0.032139905
54	0x3ceb800f	0.028747587
55	0x3c68054a	0.014161417
56	0xbb1085d6	-0.0022052429
57	0xbd13bb87	-0.036067512
58	0xbc5d07b5	-0.013490607
59	0x3b4084c1	0.0029376002
60	0xbb6f1e30	-0.00364865
61	0x3cd54030	0.026031584
62	0xbca026f2	-0.01954982
63	0x3acbed26	0.0015558347
64	0xbd1cecc1	-0.038311724
65	0x3c9c22b5	0.019059518
66	0xbbe2767c	-0.006911097
67	0x3bb8147d	0.005617677
68	0x3bfd2024	0.0077247787
69	0xbc7c0cb4	-0.015383888
70	0xbbf48ceb	-0.007463088
71	0xbce4c199	-0.027924346
72	0xbbe5a97e	-0.0070087304
73	0x3ca43221	0.020043435
74	0xbc5cb0b6	-0.013469866
75	0x3d1dea1a	0.038553335
76	0xbc5e4877	-0.013567082
77	0x3d384d8f	0.04499584
78	0xbc05a866	-0.008157825
79	0x399eba54	0.00030274934
80	0x3ca2ab6f	0.019857137
81	0xbd150bd6	-0.03638824
82	0xbba563d3	-0.0050473004
83	0x3d216a4f	0.039408024
84	0x3c68c608	0.014207371
85	0x3ca001db	0.019532135
86	0xbcd0c084	-0.025482424
87	0x3ce3c5b6	0.027804237
88	0x3c2ba1f4	0.010475624
89	0x3ce0cfbc	0.027442805
90	0xbd1f5d5e	-0.0389074
91	0xbd29417d	-0.04132222
92	0x3c5eab86	0.013590699
93	0xbc33c2e1	-0.010971756
94	0xbcfc578c	-0.030803464
95	0x3cc97822	0.024593417
96	0x3cb7eff0	0.022453278
97	0x3c21258a	0.00983561
98	0x3d26435a	0.040591575
99	0xbc5a4295	-0.013321538
100	0x3cbf671c	0.023364596
101	0x3d068dc6	0.03285005
102	0xbc051c40	-0.008124411
103	0xbce996a7	-0.02851422
104	0x3c07937b	0.008274908
105	0x3d2d627d	0.042330254
106	0x3d21506d	0.03938334
107	0x3c5bca19	0.013414883
108	0x3c643404	0.013928417
109	0xbcbe2097	-0.0232089
110	0x3d0e7923	0.034783494
111	0xbc3e93ca	-0.011631915
112	0x3ca8a071	0.020584317
113	0xbcaf54b7	-0.0214027
114	0xbc94b6a1	-0.01815349
115	0xbcc06b5e	-0.023488697
116	0x3ccb1606	0.024790775
117	0x3cfcfd1a	0.030882407
118	0x3d0137db	0.03154741
119	0x3cec881a	0.028873492
120	0xbc388494	-0.011262078
121	0xbb45ae09	-0.0030163547
122	0x3c0f6f49	0.00875456
123	0xbc94a05e	-0.018142875
124	0xbccbd361	-0.024881067
125	0xbc2dd9d4	-0.010611016
126	0x3d062247	0.032747533
127	0x3aa5d275	0.0012651222
128	0x3d023d4e	0.031796746
129	0xbb9bd33f	-0.004755407
130	0xbd2492ef	-0.04017919
131	0xbb9389cf	-0.004502512
132	0x3c41d3c1	0.011830271
133	0xbc50d81c	-0.012746837
134	0x3cb08c3f	0.02155125
135	0x3c722a64	0.0147806145
136	0xbd1a7567	-0.03770962
137	0xbbdbef25	-0.006711858
138	0xbc811d50	-0.015761048
139	0x3ce8b55a	0.028406788
140	0xbcaed5bb	-0.021342149
141	0x3d346381	0.044040207
142	0x3bf8b1ed	0.00758957
143	0x3d1e849f	0.038700696
144	0xbd0be643	-0.03415514
145	0xbbd5f057	-0.006528895
146	0xbb9277c9	-0.004469846
147	0x3c497986	0.01229704
148	0xbd0c4a17	-0.034250345
149	0xbc1ad9a3	-0.009451303
150	0xbd0bd579	-0.03413913
151	0xbc01d1e5	-0.007923578
152	0x3bb3fa77	0.005492504
153	0x3cbbb0ab	0.02291139
154	0x3c9c1054	0.019050755
155	0x3a5a559f	0.00083287986
156	0xbcc7e572	-0.0244014
157	0xbc1be754	-0.009515602
158	0xbca461bf	-0.02006614
159	0xbd207fc7	-0.039184358
160	0xbc4ddcc5	-0.012564843
161	0x3ced6972	0.028980944
162	0xbd205ccf	-0.03915101
163	0xbcaec10f	-0.021332292
164	0xbcfedb2e	-0.031110372
165	0xbc9c6bd4	-0.019094385
166	0xbcf5af4b	-0.029990813
167	0x3c24dde8	0.010062672
168	0xbb315ac9	-0.0027062169
169	0xbc04d482	-0.008107306
170	0x3bc4103e	0.0059833815
171	0x3ccdb426	0.025110316
172	0x3c921d10	0.017836124
173	0xbd0ef0a4	-0.03489746
174	0x3c0ab0d4	0.008465011
175	0xbd0a511c	-0.03376876
176	0xbcbc239f	-0.022966204
177	0x3c205f70	0.009788379
178	0x3c2be77f	0.010492205
179	0x3c68f326	0.014218127
180	0x3cac8b3a	0.021062482
181	0x3caf23b5	0.021379331
182	0xbbb0de68	-0.0053976066
183	0x3d11c62a	0.035589375
184	0x3cc60a59	0.024174856
185	0xbcaef777	-0.021358235
186	0xbcaa02c9	-0.020753281
187	0x3cf35954	0.02970568
188	0xbba48bca	-0.005021547
189	0xbd1ff1da	-0.039049007
190	0x3c107a94	0.008818287
191	0x3c624c05	0.01381207
192	0x3c5a51d2	0.013325172
193	0x3c5dfb0b	0.013548623
194	0x3c7d86dd	0.015474048
195	0x3c9d36b2	0.01919112
196	0xbcc3ba5e	-0.023892578
197	0x3cc5725d	0.024102384
198	0xbafd68b3	-0.0019333571
199	0x3ceddd55	0.029036203
200	0xbc1d4879	-0.009599798
201	0xbcf9c059	-0.030487226
202	0x3a5a91c2	0.00083377596
203	0x3bbf25bb	0.0058333552
204	0xbc520843	-0.012819353
205	0xbc8b39af	-0.01699528
206	0xbb00ad2e	-0.0019634473
207	0x3b66f522	0.0035241325
208	0xbd01a541	-0.03165174
209	0x3b982ced	0.0046440274
210	0xbb00a21e	-0.001962788
211	0xbc2fc416	-0.010727903
212	0xbcfeba04	-0.031094559
213	0x3d05342b	0.032520454
214	0xbd07c91e	-0.033150785
215	0xbbe84aca	-0.0070889937
216	0xbc9a336f	-0.018823354
217	0x3ce54dfc	0.027991287
218	0x3c593aad	0.013258618
219	0xbd37bbfb	-0.044857007
220	0x3c892629	0.016741829
221	0x3c3dc058	0.011581503
222	0x3ceab799	0.028652
223	0x3a91558e	0.0011088119
224	0xbd05693c	-0.032571062
225	0x3c6f559f	0.014607816
226	0xbce0f12c	-0.02745875
227	0x3b46dc0c	0.003034356
228	0xb9ee3f09	-0.00045441862
229	0xbb8106ad	-0.0039375634
230	0xbd1fe9d4	-0.039041355
231	0xbcbe2466	-0.023210716
232	0x3c08af6a	0.008342603
233	0xbc89312e	-0.016747084
234	0x3ab62bc2	0.0013898539
235	0xbc15da6a	-0.009146312
236	0xbd265d63	-0.040616404
237	0x3d47771e	0.048697583
238	0x3cbcc7b4	0.023044445
239	0xbd122a24	-0.03568472
240	0xbd020714	-0.03174503
241	0x3d2bc40d	0.041935015
242	0x3d350589	0.04419473
243	0xbcb7f0ea	-0.022453744
244	0x3d32a68c	0.043615863
245	0xbb3f178a	-0.0029158317
246	0x3cf22f6c	0.029563628
247	0xbcb885af	-0.022524683
248	0xbc84b3ef	-0.01619908
249	0xbbde4d41	-0.0067841117
250	0x3ba51af9	0.005038616
251	0xbd395e10	-0.04525572
252	0xbc071181	-0.008243919
253	0x3cc8c5f3	0.024508452
254	0x3d070fc3	0.032974016
255	0x3b9fa9d5	0.0048725405
